models/alike-t.pt (torch, 398591 bytes, 51 tensors)

weight f4 [8, 3, 3, 3]
0	0xbe819c6d	-0.25314656
1	0xbbd9e257	-0.0066492963
2	0x3c3ca76f	0.011514529
3	0xbd973c5b	-0.07384559
4	0x3e344d83	0.17607693
5	0x3e000ad3	0.12504129
6	0x3b8e9284	0.004350962
7	0x3cf128b6	0.029438358
8	0xbcc36e0d	-0.023856187
9	0xbd989405	-0.074501075
10	0xbe52536f	-0.2053964
11	0xbdfed478	-0.12442869
12	0xbe4c438b	-0.1994764
13	0x3e42ad96	0.1901153
14	0x3e7de2bd	0.24793525
15	0x3c5f099e	0.013613133
16	0x3dd922e7	0.1060236
17	0x3d4aa70b	0.04947571
18	0xbe65b1ca	-0.22431102
19	0xbd9afb75	-0.07567493
20	0xbd9be1fd	-0.07611463
21	0xbcc61e8f	-0.024184493
22	0x3e633ad6	0.22190413
23	0xbc55df78	-0.013053767
24	0x3d2ff9f3	0.04296298
25	0x3d9dce44	0.07705358
26	0x3d9e89d3	0.07741132
27	0xbc7ac66f	-0.015306099
28	0x3da345f5	0.079723276
29	0xbcfd1b7c	-0.030896895
30	0xbcd8a12f	-0.026444046
31	0xbe0118b6	-0.12607083
32	0xbe7f074f	-0.24905132
33	0x3d0a2224	0.033723965
34	0x3e4315c0	0.19051266
35	0x3ddc7e0e	0.107662305
36	0x3d60ce32	0.054884143
37	0xbd579093	-0.05262811
38	0xbe01adc2	-0.1266394
39	0xbd066234	-0.032808498
40	0x3c0f0058	0.008728109
41	0xbe435dc1	-0.19078733
42	0x3e453047	0.19256698
43	0x3dae03db	0.08496829
44	0x3d8ac2e3	0.06775453
45	0x3c45f71e	0.012082843
46	0xbca41eaf	-0.020034162
47	0xbd8300c6	-0.06396632
48	0x3dceee9e	0.10104106
49	0xbe199c7a	-0.15001097
50	0xbe196a99	-0.1498207
51	0xbce51868	-0.02796574
52	0x3e6ca5cc	0.23110121
53	0x3da0a09a	0.07843132
54	0x3c5b1a6a	0.013372997
55	0x3e05a847	0.13052474
56	0x3dcfbbb4	0.101432234
57	0xbd62ce5a	-0.055372573
58	0xbe43f916	-0.19137987
59	0x3de407fc	0.111343354
60	0xbd465a57	-0.048426
61	0xbe6d5bcb	-0.23179547
62	0x3df1c8e9	0.11805899
63	0x3db95ff7	0.09051507
64	0x3dc8f492	0.09812273
65	0x3e7677c6	0.24069127
66	0xbdf9ab9b	-0.12190934
67	0xbe047c83	-0.12938122
68	0x3da51632	0.08060874
69	0x3d2d964d	0.042379666
70	0xbe85605a	-0.26050073
71	0xbd0778f9	-0.033074353
72	0xbdedc1d3	-0.11609235
73	0x3e33b419	0.1754917
74	0x3e2dbb94	0.16966087
75	0x3d9034e9	0.07041342
76	0xbd1ab230	-0.03776759
77	0xbe07df48	-0.13268769
78	0xbb93b08e	-0.004507131
79	0xbdb653ed	-0.08902726
80	0xbc7f2e4e	-0.015575005
81	0xbdfa90e4	-0.12234667
82	0x3e00ab42	0.1256533
83	0xbd83fa04	-0.06444171
84	0x3dabd2a0	0.08389783
85	0xbd9581f4	-0.07300177
86	0x3d184677	0.037176576
87	0xbca428b6	-0.020038944
88	0x3d9e8f66	0.07742195
89	0x3d2f6bd1	0.04282743
90	0xbc89737d	-0.016778702
91	0xbdee6896	-0.11641042
92	0x3da650fb	0.081209145
93	0xbdc825d2	-0.09772839
94	0x3e14af0e	0.14519903
95	0xbd2ba8e3	-0.04190911
96	0x3cd14ae2	0.025548402
97	0x3e888fca	0.26672202
98	0x3d87b03b	0.0662541
99	0xbdd3386b	-0.10313495
100	0xbcbc4cf8	-0.02298592
101	0x3e84b4a8	0.2591908
102	0x3d711491	0.058857504
103	0xbd622571	-0.05521149
104	0x3e415fed	0.18884249
105	0x3db421f4	0.087955385
106	0x3eb5dd55	0.35520425
107	0x3e976635	0.29570165
108	0x3db8211d	0.08990691
109	0x3e41a702	0.18911365
110	0x3d0ce385	0.034396667
111	0xbd4d11c4	-0.05006577
112	0x3e299481	0.16560556
113	0xbdabd7b9	-0.08390755
114	0xbca57cd3	-0.020201122
115	0xbe2d459b	-0.16921084
116	0xbb34ff10	-0.002761785
117	0x3e57117e	0.21002766
118	0x3e2a02b9	0.16602601
119	0x3c694255	0.014237006
120	0x3d9e4cfa	0.07729526
121	0x3d147a5c	0.036249503
122	0xbd9d6cb7	-0.07686751
123	0xbe57cf41	-0.21075155
124	0xbe0b75c2	-0.1361914
125	0x3d3b6d9c	0.04575883
126	0x3da9980a	0.08280952
127	0x3e7c817f	0.24658774
128	0xbdbcd6cd	-0.092206575
129	0x3e34ff57	0.1767553
130	0xbd6d069b	-0.057867628
131	0x3dec6888	0.11543375
132	0xbca5bb91	-0.02023104
133	0xbe822238	-0.25416732
134	0x3dd33a28	0.10313827
135	0xbc1da4a0	-0.009621769
136	0x3e0b3819	0.13595618
137	0x3df9eb1e	0.12203048
138	0xbc1e84f4	-0.009675253
139	0xbd4aedb7	-0.04954311
140	0xbd925e24	-0.07146862
141	0x3e1f777c	0.15572923
142	0x3c7ee430	0.015557334
143	0xbcab115b	-0.0208823
144	0xbe382c6f	-0.179857
145	0x3e497d26	0.19676647
146	0x3cbf9059	0.02338426
147	0x3dfa089e	0.12208675
148	0x3d0fa665	0.035070796
149	0xbbe0e3f1	-0.0068631102
150	0xbd286465	-0.04111137
151	0xbcd58117	-0.026062531
152	0x3dff96a5	0.12479905
153	0x3d9136d5	0.070905365
154	0x3e636ecb	0.22210233
155	0x3da83f51	0.08215202
156	0xbd84da91	-0.06487001
157	0x3dc5c4dc	0.096566886
158	0x3da0d477	0.078530245
159	0x3e30fba8	0.17283499
160	0xbd13998d	-0.03603511
161	0x3d1170ef	0.035508092
162	0xbd7b88c7	-0.061409738
163	0x3d4330fb	0.047654133
164	0x3bd64bac	0.0065397825
165	0x3b1c56cd	0.0023855448
166	0x3d7498d2	0.059716053
167	0x3d14f6d5	0.03636821
168	0xbe031e12	-0.1280444
169	0x3db72cd8	0.089441
170	0xbe08900b	-0.13336198
171	0x3d1c1acb	0.03811149
172	0x3e265c75	0.16246207
173	0x39c476b1	0.00037472465
174	0x3df402f8	0.11914629
175	0x3e76b587	0.24092685
176	0xbd1f85e2	-0.03894604
177	0xbdf916a8	-0.121625245
178	0xbe4d6bf0	-0.20060706
179	0xbd74518e	-0.05964809
180	0x3e617cd5	0.22020276
181	0x3eb1bee9	0.34715965
182	0x3d9bd9b0	0.0760988
183	0x3da5e9cb	0.08101233
184	0x3dc6b239	0.09701962
185	0x3ddcffc9	0.10790975
186	0xbdf03a70	-0.11729896
187	0x3d02b948	0.03191498
188	0xbe4043f8	-0.18775928
189	0x3cb3c66a	0.021945197
190	0x3e0af609	0.13570417
191	0xbd87ba06	-0.06627278
192	0xbd3778c8	-0.04479292
193	0xbd5f475a	-0.054511406
194	0x3d1005cc	0.03516178
195	0x3c82a9d2	0.015950117
196	0xbdf4a7a8	-0.119460404
197	0xbda48834	-0.08033791
198	0x3d225fee	0.039642267
199	0x3deed982	0.1166258
200	0xbbb95949	-0.0056563956
201	0x3b3bb2d1	0.0028640518
202	0xbe693972	-0.2277582
203	0xbda42205	-0.08014301
204	0x3d31c9b5	0.043405253
205	0xbe3c0c85	-0.18364151
206	0x3dda88a1	0.10670591
207	0xbca61427	-0.020273281
208	0xbd2c54a0	-0.042072892
209	0xbe5f579d	-0.21810766
210	0xbd12c0ab	-0.035828274
211	0xbcd26615	-0.025683442
212	0x3dd63143	0.10458615
213	0xbda371c8	-0.079806864
214	0xbdd23339	-0.10263676
215	0xbe241a71	-0.16025712

weight f4 [8]
0	0x3f52877f	0.82238
1	0x3f53526f	0.8254766
2	0x3f46f993	0.7772457
3	0x3f82296a	1.0168889
4	0x3f42f18a	0.7614981
5	0x3f655f80	0.89598846
6	0x3f4ebb4a	0.8075453
7	0x3fa3e715	1.2804896

bias f4 [8]
0	0x3f55282e	0.83264434
1	0x3f0a44c3	0.5401117
2	0x3f0329d8	0.51235723
3	0x3db5f8aa	0.088853195
4	0x3d5746dd	0.052557815
5	0x3dc53230	0.09628713
6	0x3e80df17	0.25170204
7	0xbdd3db1a	-0.10344525

running_mean f4 [8]
0	0xba17150b	-0.00057633285
1	0xbc0d8704	-0.008638147
2	0xbc34cf1a	-0.011035705
3	0x3f247772	0.6424476
4	0x3e823836	0.2543351
5	0x3f03c3d2	0.51470673
6	0x3ea24dd9	0.31700018
7	0xbecf91f4	-0.4054104

running_var f4 [8]
0	0x3be1c370	0.006889753
1	0x3b9bc4ff	0.0047537084
2	0x3bc9a361	0.0061535095
3	0x3e055587	0.13020907
4	0x3cc126e8	0.023578122
5	0x3d9cfa00	0.07664871
6	0x3d1f9e6c	0.038969442
7	0x3d4a645a	0.04941211

weight f4 [8, 8, 3, 3]
0	0x3ce99f11	0.028518232
1	0x3d7f70e3	0.062363517
2	0x3d08a8e7	0.033364203
3	0x3d609a41	0.054834608
4	0x3d88ec79	0.066857286
5	0x3dbf805e	0.09350656
6	0x3cc4fc21	0.024046006
7	0x3e1b0e75	0.15142234
8	0x3dfb7c43	0.122795604
9	0x3d82f028	0.063934624
10	0x3da06f0d	0.07833681
11	0x3ca3c0dc	0.019989423
12	0x39ed95c7	0.00045315755
13	0x3db147b6	0.08656256
14	0xbb1b1569	-0.0023663884
15	0x3ce71603	0.028208738
16	0xbbc829a5	-0.00610848
17	0x3cd984d3	0.026552593
18	0x3bb4f0d1	0.0055218716
19	0x3bba16ad	0.0056789727
20	0x3d9367b8	0.07197517
21	0xbde57ab3	-0.11205044
22	0xbdfc8732	-0.12330474
23	0xbde5e1ab	-0.112246834
24	0xbdf06501	-0.11738015
25	0xbe3f9295	-0.1870826
26	0xbda9e38b	-0.082953535
27	0xbd7a522c	-0.06111352
28	0x3d19be21	0.037534837
29	0xbce06a5e	-0.02739447
30	0x3d9912a1	0.07474256
31	0x3c2200ac	0.0098878555
32	0xbc5a8222	-0.01333669
33	0x3dfc1e32	0.12310447
34	0xbbab99e4	-0.005236851
35	0x3e17e10e	0.14831945
36	0xbdc4ca7d	-0.09608934
37	0xbb04eb01	-0.0020281675
38	0x3d7b6df4	0.061384156
39	0x3d8ab57f	0.06772899
40	0xbd98131f	-0.07425522
41	0xbdb5bb40	-0.08873606
42	0x3d23da95	0.040003378
43	0xbd5d711b	-0.054062944
44	0xbca8971d	-0.020579869
45	0xbd22831c	-0.039675817
46	0x3d51eaaa	0.051249184
47	0xbdfcd72a	-0.12345727
48	0x3d3011b3	0.04298563
49	0xbd55f74e	-0.0522378
50	0xbcd3c590	-0.025851041
51	0xbcfc4f23	-0.030799454
52	0x3dc7f800	0.09764099
53	0x3de8bd16	0.1136419
54	0x3c589b12	0.013220565
55	0xbe19ce11	-0.15020014
56	0xbd89663b	-0.06708952
57	0xbd0f15c1	-0.034932856
58	0x3cfb068a	0.030642767
59	0xbdd39a51	-0.10332168
60	0x3cd7f458	0.02636163
61	0x3d4e337d	0.05034207
62	0x3d34ed48	0.0441716
63	0x3dcbb3de	0.09946416
64	0x3e2c4a21	0.16825153
65	0x3e185bd5	0.14878781
66	0x3b043516	0.0020173243
67	0xbd92576d	-0.071455814
68	0xbdb5b5cd	-0.08872566
69	0x3aab557d	0.0013071742
70	0xbde0927f	-0.10965442
71	0xbe20be63	-0.15697627
72	0xbd13d228	-0.036089092
73	0x3d66a862	0.056312926
74	0xbd9ba8ff	-0.07600593
75	0x3cf23e3e	0.029570695
76	0xbda2ce58	-0.07949513
77	0xbe20a85a	-0.15689221
78	0xbc3111ec	-0.010807496
79	0x3c2c4d7d	0.0105165215
80	0xbe54b0cc	-0.20770568
81	0x3c383600	0.011243343
82	0x3cbd5eea	0.023116548
83	0x3d43979c	0.047752008
84	0x3b8f994f	0.0043822895
85	0x3d8575b4	0.06516591
86	0x3d4d16e1	0.050070647
87	0xbcbb9008	-0.022895828
88	0x3d95d403	0.07315829
89	0xbd0677f7	-0.03282925
90	0x3d31f039	0.043441985
91	0xbe1dcb26	-0.15409526
92	0x3d9b49f6	0.07582466
93	0xbbbba19f	-0.005726054
94	0xbdc122f9	-0.09430499
95	0x3daaf48b	0.08347424
96	0xbd0139d8	-0.031549305
97	0xbdbe28cc	-0.09285125
98	0x3d0fbe21	0.03509343
99	0x3df65734	0.120283514
100	0x3cfa4115	0.030548612
101	0xbe0a8c7f	-0.13530158
102	0x3cfc25a9	0.030779677
103	0x3bc63826	0.006049174
104	0xbd92e614	-0.0717279
105	0x3da6f29c	0.08151743
106	0xbd086578	-0.033299893
107	0xbe19fb7f	-0.15037344
108	0xbd14e8d3	-0.03635485
109	0x3ce59efe	0.028029915
110	0x3d2ab54b	0.0416768
111	0x3d2c6e97	0.042097654
112	0xbdae60f5	-0.08514587
113	0x3d6bcc60	0.057567954
114	0xbd2f140c	-0.042743728
115	0x3e0c896c	0.13724297
116	0xbd7426e6	-0.05960741
117	0x3bf17952	0.007369199
118	0xbd622eaf	-0.055220302
119	0xbd4a82bf	-0.049441095
120	0x3d77999d	0.06044923
121	0x3d2d41dd	0.04229914
122	0xbd0d1190	-0.034440577
123	0x3d780dc7	0.060560014
124	0x3dcbb308	0.09946257
125	0xbd0ba9f7	-0.034097638
126	0x3c4f1a7d	0.012640593
127	0x3d926bc5	0.07149462
128	0xbd8ad0a6	-0.06778078
129	0x3d245583	0.040120613
130	0xbdd45e05	-0.10369495
131	0xbc0e9bda	-0.00870415
132	0x3de60b04	0.1123257
133	0xbd6afd8e	-0.057370715
134	0xbda44880	-0.08021641
135	0xbdd4442f	-0.103645675
136	0xbdf1810f	-0.11792194
137	0x3e34bbcb	0.17649762
138	0xbdd8445e	-0.10559915
139	0xbe0785c9	-0.13234629
140	0x3e214cd6	0.15751967
141	0xbd318f43	-0.043349516
142	0x3cf27303	0.029595857
143	0x3e136733	0.14394836
144	0x3cd0a01f	0.025466977
145	0xbbb58a02	-0.0055401335
146	0x3b438c49	0.0029838255
147	0x3acfa5eb	0.0015842294
148	0xbc66f359	-0.014096105
149	0x3d965c46	0.073418185
150	0x3d02df25	0.03195109
151	0xbde05233	-0.10953178
152	0x3e0d9669	0.13826908
153	0x37e80cfd	2.7662603e-05
154	0x3d01a083	0.031647217
155	0xbaf85789	-0.0018946986
156	0x3d4a0c39	0.049328063
157	0x3cf10fff	0.029426573
158	0xbd533c32	-0.05157108
159	0xbaaef040	-0.0013346747
160	0x3c8de95b	0.017323187
161	0xbca0cd43	-0.019629126
162	0xbc97a978	-0.018513426
163	0xbd3c5170	-0.045976102
164	0x3d070a80	0.032968998
165	0x3ca93e51	0.020659598
166	0xbd2d7797	-0.042350378
167	0x3d6cdc3d	0.057827223
168	0xbddc3466	-0.10752182
169	0x3d271380	0.04079008
170	0x3d4be75a	0.04978118
171	0xbd3ce821	-0.046119813
172	0xbe22463c	-0.15847105
173	0xbc089d60	-0.008338302
174	0xbd97e7a0	-0.07417226
175	0x3d94dc38	0.07268566
176	0xbdaa57d8	-0.08317536
177	0xbc82ae3e	-0.015952226
178	0x3cbdb027	0.023155285
179	0xbb36b672	-0.0027879742
180	0x3d0197f7	0.031639066
181	0x3c99eb52	0.018788967
182	0xbcb5aafb	-0.022176256
183	0x3dc7b301	0.09750939
184	0x3dbda8fa	0.09260745
185	0xbbbf5cb5	-0.005839909
186	0x3c7cdb6d	0.015433175
187	0xbc65abfd	-0.014018056
188	0xbc818a95	-0.015813151
189	0xba3aed04	-0.0007130655
190	0x3d24f82e	0.040275745
191	0x3d7ced98	0.061750025
192	0x3d09d454	0.033649758
193	0xbd663d23	-0.05621065
194	0xbced4ffa	-0.0289688
195	0x3d0ee16a	0.03488294
196	0xbdc84229	-0.09778244
197	0xbcb330d7	-0.021873875
198	0xbd8d524e	-0.06900464
199	0x3d63ab3b	0.05558322
200	0xbca6af07	-0.020347131
201	0xbd162be5	-0.036662955
202	0xba6c689c	-0.00090182736
203	0x3d8b14ea	0.067910984
204	0x3e0b5573	0.13606815
205	0x3d8d07eb	0.06886276
206	0x3d3a4be7	0.045482542
207	0x3e582b1b	0.21110193
208	0x3e8e697f	0.27814862
209	0x3e66196e	0.22470638
210	0x3d5c21c4	0.05374314
211	0x3da38f3f	0.079863064
212	0x3e5b7ab9	0.21433534
213	0x3dc4ba08	0.09605795
214	0x3cff6a59	0.03117864
215	0x3e695603	0.22786717
216	0x3c089310	0.008335844
217	0x3d8766ae	0.066113815
218	0x3d676751	0.056495015
219	0x3d927601	0.07151414
220	0x3d744a58	0.059641212
221	0x3db5cb36	0.0887665
222	0x3d516053	0.051117253
223	0x3d40a3f4	0.047031358
224	0x3dda303e	0.10653733
225	0x3d782395	0.06058081
226	0xbe6cad74	-0.23113042
227	0x3b4229c7	0.0029626952
228	0x3dafa0dc	0.08575603
229	0xbe0128e5	-0.12613256
230	0xbddb383a	-0.10704084
231	0x3db9cee5	0.09072665
232	0xbd2b967d	-0.041891564
233	0xbd83f0d2	-0.06442417
234	0x3d902c26	0.07039671
235	0x3d88dfbc	0.06683299
236	0x3cbaec04	0.02281762
237	0xbd503904	-0.050835624
238	0x3e07ba94	0.13254768
239	0x3cfe5069	0.031044202
240	0xbd35517a	-0.044267155
241	0x3df9a362	0.12189366
242	0x3dc5ae8b	0.09652432
243	0xbc41e7cc	-0.01183505
244	0xbd37920e	-0.044817023
245	0x3cd984c7	0.026552571
246	0xbd1cbcb1	-0.038265888
247	0x3c099432	0.008397149
248	0x3d46bd87	0.04852059
249	0xbd7b23e1	-0.061313514
250	0x3da6a634	0.081371695
251	0x3d08d45b	0.033405643
252	0xbcefbf99	-0.029266166
253	0xbd25b9e7	-0.040460493
254	0xbc20b513	-0.009808796
255	0xbda88ee0	-0.08230376

weight f4 [8]
0	0x3f76a492	0.96344864
1	0x3f939336	1.15293
2	0x3f6c3dd6	0.92281854
3	0x3f48e252	0.7847034
4	0x3f7b10d7	0.9807257
5	0x3f7c0808	0.98449755
6	0x3f6a93ba	0.9163166
7	0x3f5c003d	0.85937864

bias f4 [8]
0	0x3ec703d1	0.388701
1	0x3ef41946	0.47675532
2	0x3f4c82d4	0.7988713
3	0x3e7648eb	0.24051253
4	0x3e519a08	0.20468915
5	0x3e29dfb2	0.16589239
6	0x3e9835d3	0.29728565
7	0x3f86d27c	1.0532985

running_mean f4 [8]
0	0x3eb81682	0.35954672
1	0xbec37122	-0.3817225
2	0x3f617e66	0.88083494
3	0x3f21005a	0.6289116
4	0xbf1a7070	-0.60327816
5	0xbcb10f8d	-0.02161386
6	0x3d96569a	0.07340737
7	0xbeaff284	-0.34364712

running_var f4 [8]
0	0x3eefecde	0.46860403
1	0x3e46a856	0.19400153
2	0x3f5035b1	0.81331927
3	0x3e8b5f38	0.27221084
4	0x3efa6d26	0.489114
5	0x3e85223f	0.2600269
6	0x3f300a24	0.68765473
7	0x3e39d608	0.18148053

weight f4 [16, 8, 3, 3]
0	0x3c1e2b6d	0.009653908
1	0xbd4b39da	-0.04961572
2	0x3dc16860	0.09443736
3	0xbc450286	-0.012024527
4	0x3d71acbc	0.059002623
5	0x3c945c14	0.018110313
6	0x3ce0a7b2	0.027423713
7	0xbd4c24e8	-0.049839884
8	0x3b1111b9	0.0022135808
9	0xbe187752	-0.14889267
10	0xbe8dd1a8	-0.27699018
11	0xbdae2aa1	-0.085042246
12	0xbd0e2ee9	-0.034712706
13	0xbe9c238c	-0.3049587
14	0xbe015bcf	-0.12632678
15	0xbe5c6a9d	-0.21525045
16	0xbe6b771d	-0.22994657
17	0xbe2c3ee8	-0.16820872
18	0xbd0d41f8	-0.03448674
19	0xbe06346c	-0.13105935
20	0x3d25b24d	0.040453244
21	0x3d19985b	0.037498813
22	0x3d7ce81c	0.061744794
23	0x3cd7a317	0.026322884
24	0xbd520248	-0.051271707
25	0x3dc04745	0.093885936
26	0xbd006658	-0.031347603
27	0xbd8b329c	-0.06796762
28	0xbdf2fd37	-0.11864703
29	0xbdfc4294	-0.12317386
30	0xbde737ab	-0.11289915
31	0xbd8c8c4c	-0.06862697
32	0xbd9c4281	-0.07629872
33	0xbe744dba	-0.23857775
34	0xbd8405f7	-0.0644645
35	0xbd36f792	-0.044669695
36	0x3d8e50e3	0.06949022
37	0xbacd6222	-0.0015669505
38	0x3ca95c09	0.020673769
39	0x3d2a2b4a	0.04154519
40	0xbb22fd01	-0.002487004
41	0x3d450717	0.048102465
42	0xbbfebf8d	-0.0077742995
43	0x3c257b36	0.010100177
44	0x3d4e8f0a	0.05042938
45	0x3c8e4538	0.01736699
46	0xbcaeb895	-0.02132825
47	0x3d2a56f7	0.041586842
48	0x3d7feff7	0.062484708
49	0x3da80881	0.08204747
50	0xbb7b476e	-0.0038342136
51	0x3cfb9c9d	0.030714327
52	0xbd479ee6	-0.04873552
53	0x3dc52181	0.09625531
54	0xbe2dab1d	-0.16959806
55	0x3da6d1ef	0.081455104
56	0x3d467ebd	0.04846071
57	0xbc61bb91	-0.0137776295
58	0x3d0aea6f	0.03391498
59	0xbd7ee2d9	-0.062228058
60	0xbc1918dd	-0.009344307
61	0x3daedd07	0.08538251
62	0x3d41b195	0.047288496
63	0x3d1a0282	0.037600048
64	0x3d2cf6fb	0.042227726
65	0xbd8c61a4	-0.06854561
66	0x3db881d0	0.09009135
67	0x3c915d3f	0.017744659
68	0xbd1150db	-0.0354775
69	0x3dd22a13	0.10261931
70	0xbcb44110	-0.02200368
71	0xbd92601e	-0.07147239
72	0xbc8bfbce	-0.017087843
73	0x3d772374	0.060336545
74	0xbced2537	-0.02894841
75	0x3d1afd37	0.03783914
76	0x3c09745d	0.00838956
77	0x3c6e0c69	0.014529326
78	0x3dbb6f4b	0.09152087
79	0xbaf6c684	-0.0018827473
80	0x3d8323e1	0.06403328
81	0xbe8d0027	-0.2753918
82	0xbeae51bd	-0.34046736
83	0xbdf26a30	-0.1183666
84	0xbe2d980b	-0.16952531
85	0xbdb75e65	-0.08953551
86	0xbd0708c7	-0.032967355
87	0x3e0dfd9d	0.13866277
88	0x3e2999cd	0.16562577
89	0x3df59f58	0.11993283
90	0xbd4e4d07	-0.050366428
91	0xbd4d8144	-0.050172105
92	0x3bd15e21	0.006389395
93	0xbdb18b1c	-0.08669111
94	0xbd816642	-0.06318332
95	0x3d877694	0.06614414
96	0x3df478ea	0.11937125
97	0xbc39c6da	-0.011338914
98	0x3d89d561	0.06730152
99	0xbdeafb5f	-0.114737265
100	0xbd308f9b	-0.043105703
101	0x3bd182b0	0.006393753
102	0xbcd1f4a7	-0.025629355
103	0xbc873d60	-0.016508758
104	0xbd5d5e25	-0.05404486
105	0xbd956e20	-0.07296395
106	0xbdb56a22	-0.08858134
107	0x3d76a12e	0.060212307
108	0xbbd9c4f3	-0.0066457926
109	0xbc039199	-0.008030319
110	0xbd071ce7	-0.032986548
111	0xbd73bf7a	-0.05950878
112	0x3d75237e	0.0598483
113	0x3c60bc2b	0.013716738
114	0x3cf315b0	0.029673427
115	0x3e22d64d	0.15902062
116	0x3bf7844f	0.007553614
117	0x3a9ee45c	0.00121225
118	0xbd06c04c	-0.032898232
119	0x3ccdfd90	0.025145322
120	0xbc0418d8	-0.008062564
121	0xbc624877	-0.013811222
122	0x3b957b39	0.0045618084
123	0xbd13eab1	-0.03611249
124	0x3d5c815b	0.0538343
125	0xbd0a453a	-0.033757426
126	0x3c150a8c	0.009096753
127	0x3dbbce94	0.09170261
128	0xbdcb3ff8	-0.099243104
129	0xbd367a3b	-0.04455016
130	0x3dd1e161	0.10248066
131	0xbd124c53	-0.03571732
132	0xbdcef95b	-0.101061545
133	0x3ccd9e40	0.025099874
134	0xbcd52ef6	-0.02602337
135	0xbe4479d6	-0.19187102
136	0xbe432177	-0.19055735
137	0xba38e8a8	-0.00070537115
138	0x3c7ad0b0	0.015308544
139	0xbd80b4a9	-0.06284458
140	0xbd04d352	-0.032428093
141	0x3bfdb72a	0.007742782
142	0x3e0425c0	0.12905025
143	0x3dd16818	0.102249324
144	0x3d82aeb6	0.0638098
145	0x3d7ab540	0.06120801
146	0xbc99accc	-0.018759154
147	0x3e083eb4	0.1330517
148	0x3dccbd29	0.09997017
149	0x3df83553	0.12119546
150	0x3c11543a	0.008870179
151	0x3d4609ca	0.04834918
152	0x3dd52b62	0.10408665
153	0x3d8cd258	0.068760574
154	0xbd0bf396	-0.03416785
155	0x3d30e6cc	0.043188855
156	0x3db66b1e	0.0890715
157	0x3e3c24b1	0.18373372
158	0x3dda9f64	0.106749326
159	0xbbee838a	-0.0072788643
160	0xbdc1e2cd	-0.09467087
161	0xbd3a2ec9	-0.045454774
162	0x3dd2bc47	0.10289817
163	0xbca45405	-0.020059595
164	0x3d84a693	0.06477084
165	0x3da6d478	0.08145994
166	0x3e1761c6	0.14783391
167	0x3d0a2dea	0.033735193
168	0xbcfbaa4c	-0.030720852
169	0xbdb0ebb8	-0.0863871
170	0xbba2104f	-0.004945792
171	0xbd228446	-0.039676927
172	0xbd516a9d	-0.051127065
173	0x3ccd49dd	0.025059635
174	0x3e0b8d96	0.1362823
175	0x3d95d7ce	0.07316552
176	0xbbffda4e	-0.0078080064
177	0x3e0d843e	0.13819978
178	0xbd480f62	-0.048842795
179	0x3d26d099	0.040726278
180	0x3d946b12	0.072469845
181	0x3dc908c5	0.09816126
182	0xbd2b5283	-0.041826736
183	0x3d873705	0.06602291
184	0x3e1939a3	0.14963393
185	0x3cd49c75	0.02595351
186	0x3e07a58a	0.13246742
187	0x3d88fb57	0.06688564
188	0xbd46a8c4	-0.04850079
189	0x3de855f0	0.11344516
190	0x3c21f4c0	0.009885013
191	0xbb5756b0	-0.0032858066
192	0xbb7feea2	-0.0039052148
193	0x3e61b8ba	0.22043124
194	0xbc86763a	-0.016413797
195	0x3d386b4a	0.045024194
196	0x3d5dee50	0.05418235
197	0x3d623a64	0.055231467
198	0xbd96511a	-0.07339688
199	0x3dbcac9d	0.09212611
200	0xbcf2ddba	-0.029646743
201	0xbbc80714	-0.0061043594
202	0x3dc83d34	0.097772986
203	0xbd8b6299	-0.068059154
204	0x3c44914e	0.011997534
205	0x3bf3c248	0.0074389316
206	0x3d3640aa	0.044495262
207	0xbdfbcd0c	-0.12294969
208	0x3c1d115e	0.00958666
209	0xbd7588c4	-0.059944883
210	0x3da632c9	0.08115155
211	0x3cb29fe2	0.021804754
212	0xbbcb103d	-0.006197004
213	0x3e016c90	0.1263907
214	0xbcaf2673	-0.021380639
215	0xbb8b4b4e	-0.0042509204
216	0x3d61e30c	0.05514817
217	0xbe0a9c55	-0.13536198
218	0xbc768f88	-0.015048869
219	0xbe24984a	-0.16073719
220	0xbef55fb5	-0.4792458
221	0xbd1b9fa7	-0.037994053
222	0xbddab893	-0.10679736
223	0xbdd1959c	-0.10233614
224	0xbcb7f145	-0.022453913
225	0x3d0f0c6f	0.034923967
226	0x3d072644	0.032995477
227	0x3d2dbc9b	0.042416196
228	0x3c2c951c	0.010533597
229	0x3e155948	0.1458484
230	0x3d0c8626	0.03430762
231	0x3d8f5aa3	0.069997095
232	0xbd12ed3f	-0.035870787
233	0x3dba2ca0	0.09090543
234	0x3bc4b2e0	0.006002769
235	0xbda876e7	-0.08225804
236	0xbdcf455a	-0.1012065
237	0x3d04590f	0.032311495
238	0x3cb5273e	0.022113439
239	0xbaee4383	-0.0018178079
240	0x3cf6c763	0.030124372
241	0x3dfc4b22	0.12319018
242	0xbdb69ad1	-0.08916248
243	0x3d68cb15	0.0568343
244	0x3d18936a	0.03724996
245	0x3c1a0088	0.009399541
246	0xbb2fc552	-0.0026820493
247	0x3a3ecb61	0.00072782306
248	0xbb938ab6	-0.0045026196
249	0x3bb08604	0.0053870697
250	0xbd23f6f0	-0.04003042
251	0x3c9db296	0.019250195
252	0xbdc84a36	-0.097797796
253	0x3b67cb41	0.0035368952
254	0x3c256415	0.010094662
255	0xbda8dc6d	-0.08245168

weight f4 [16]
0	0x3f9135e7	1.1344575
1	0x3f7202c5	0.94535476
2	0x3f3b2a72	0.7311164
3	0x3f7852e9	0.9700151
4	0x3f49afa1	0.78783613
5	0x3f783d7e	0.9696883
6	0x3f6a10ce	0.9143189
7	0x3f37d484	0.7180865
8	0x3f89007d	1.0703274
9	0x3f83091d	1.0237156
10	0x3f7713ae	0.96514404
11	0x3f65c342	0.89751065
12	0x3f5a12af	0.8518476
13	0x3f689a3c	0.9086034
14	0x3f5db582	0.86605084
15	0x3f8f8243	1.1211628

bias f4 [16]
0	0xbd12179b	-0.035667043
1	0x3e22f30c	0.15913028
2	0x3f86026d	1.046949
3	0x3e90d859	0.2829006
4	0x3f359ffd	0.7094725
5	0x3f032c36	0.51239336
6	0x3cca2387	0.024675144
7	0x3f239404	0.6389773
8	0x3ecd4382	0.40090567
9	0x3ee3e376	0.44509476
10	0x3e83f12c	0.25769937
11	0x3ef577bc	0.47942913
12	0x3d598c0a	0.053112067
13	0x3cee3ffe	0.029083248
14	0x3f05a425	0.5220359
15	0x3e521fda	0.20519963

running_mean f4 [16]
0	0xbfbee0a5	-1.4912306
1	0xbf60fe68	-0.87888193
2	0x3ff1d429	1.8892871
3	0x3dfa1753	0.1221148
4	0xbda144ad	-0.07874427
5	0xbe977600	-0.29582214
6	0xbf975a0b	-1.1824354
7	0xbcb873d4	-0.022516169
8	0xbeaea138	-0.34107375
9	0xbf41b8fa	-0.75672877
10	0xbf512519	-0.8169723
11	0xbe40d0a7	-0.18829595
12	0x3f5b88bc	0.85755515
13	0xbf219f20	-0.6313343
14	0xbcd6bfdd	-0.026214534
15	0xbf5094da	-0.8147713

running_var f4 [16]
0	0x3f99b888	1.200944
1	0x3eb9e36a	0.36306316
2	0x3f3247de	0.6964091
3	0x3f0d24a6	0.55134046
4	0x3e869102	0.26282507
5	0x3ebe495c	0.37165344
6	0x3f22edb8	0.6364398
7	0x3ea1fd43	0.31638536
8	0x3f18d8fb	0.59706086
9	0x3ef11960	0.47089672
10	0x3edaeae7	0.4275734
11	0x3e30da27	0.17270719
12	0x3f144b82	0.57927716
13	0x3f0233f6	0.50860536
14	0x3f26b4f7	0.6511988
15	0x3f35f123	0.7107107

weight f4 [16, 16, 3, 3]
0	0x3d8772f5	0.06613723
1	0xbc8d8009	-0.017272966
2	0x3d9acfae	0.07559143
3	0xbdcf888e	-0.101334676
4	0x3d1c06be	0.038092367
5	0x3cb5bd95	0.022185126
6	0xbd9cdf05	-0.07659725
7	0x3ce8721a	0.02837472
8	0x3d8ea735	0.06965486
9	0x3dba68d2	0.09102024
10	0xbaaf62d2	-0.0013380891
11	0x3d8ff7bc	0.070296735
12	0x3c9e4e64	0.019324489
13	0x3cbc9137	0.023018463
14	0x3d047b0d	0.032343913
15	0x3d82e3b4	0.06391087
16	0x3ca572e5	0.020196388
17	0x3d9f6ad2	0.07784046
18	0xbc849fa2	-0.0161894
19	0xbcd427b4	-0.025897838
20	0xbd8124ce	-0.06305848
21	0xbd3e17a9	-0.046409283
22	0xbd012c42	-0.03153635
23	0xbd9d0466	-0.076668546
24	0xbccaed59	-0.02477138
25	0x3c9dbc5c	0.019254856
26	0xbd08780b	-0.033317607
27	0xbdd399d4	-0.10332075
28	0xbdaff044	-0.08590749
29	0xbdee4da7	-0.11635905
30	0xbd93ffdb	-0.07226535
31	0xbd9b485e	-0.07582162
32	0xbdfd85f3	-0.123790644
33	0xbce7c044	-0.028289922
34	0x3c824679	0.015902745
35	0xbd19fc0b	-0.037593883
36	0x3dd48cb0	0.103783965
37	0xbd6b8d44	-0.05750777
38	0xbc41c0f2	-0.011825787
39	0xbc3651c8	-0.011127897
40	0xbc869062	-0.016426269
41	0x3d6cf942	0.0578549
42	0xbbee8038	-0.0072784685
43	0x3d71c4fa	0.059025742
44	0x3d087e3f	0.033323523
45	0x3cbd2c94	0.023092546
46	0x3d1e035d	0.038577426
47	0x3da5729c	0.08078501
48	0xbba4525d	-0.0050147013
49	0x3ce50683	0.027957207
50	0x3b9c0676	0.0047615124
51	0x3d357fc4	0.0443113
52	0x3c8a9020	0.016914427
53	0x3cfa0896	0.030521672
54	0xbb2c4692	-0.002628718
55	0xbcf52113	-0.029922998
56	0xbdb14008	-0.08654791
57	0x3cf5f41a	0.030023623
58	0x3d0ea068	0.034820944
59	0xbd5e6dc1	-0.05430389
60	0x3cc56374	0.024095275
61	0x3d91dba4	0.07121971
62	0x3d5a6c2b	0.053325813
63	0xbd14628e	-0.0362268
64	0xbbf3bb0a	-0.0074380683
65	0x3c1934c7	0.009350962
66	0xbd68204f	-0.056671437
67	0xbce44f4a	-0.02786984
68	0xbcc93a92	-0.024564061
69	0xbd5f6657	-0.05454096
70	0xbc8ff462	-0.017572585
71	0x3b677fb8	0.003532393
72	0x3dfe1106	0.12405591
73	0x3ded88d7	0.11598366
74	0x3e6c4dd9	0.23076572
75	0x3d412aed	0.047160078
76	0x3b96d678	0.0046032034
77	0x3d3e165a	0.046408035
78	0x3dc92f49	0.09823472
79	0x3d0f3d5b	0.034970623
80	0x3e05c9ba	0.13065234
81	0xbd5b180c	-0.05348973
82	0x3d0f06c9	0.03491858
83	0x3e106488	0.1410085
84	0x3d8b6de6	0.06808071
85	0x3d8ce2ef	0.06879222
86	0x3ca69cec	0.020338498
87	0x3d2d43e5	0.042301077
88	0xbd9e35d1	-0.077251084
89	0xbc8378fc	-0.0160489
90	0xbdc0d8ce	-0.09416352
91	0xbdef764b	-0.116924845
92	0xbe28a858	-0.16470468
93	0xbd9b7f6d	-0.07592664
94	0xbbf3c9ed	-0.007439843
95	0xbd066cb8	-0.032818526
96	0xbd1f92d0	-0.03895837
97	0xbcce9c05	-0.02522088
98	0xbd84295d	-0.06453202
99	0xbe2835e2	-0.16426805
100	0x3d0b795d	0.034051288
101	0xbd8c71a9	-0.068576165
102	0x3c954835	0.018222908
103	0xbcdd0f87	-0.026984943
104	0xbdec8636	-0.11549036
105	0xbd728b97	-0.059215154
106	0xbda9b0e2	-0.08285691
107	0xbd81e1f8	-0.06341928
108	0x3d58a1fd	0.05288886
109	0xbd395d9d	-0.045255292
110	0x3d54f374	0.051989987
111	0x3c9ca62e	0.01912221
112	0xbc8f8048	-0.017517224
113	0x3af62987	0.0018780687
114	0x3c77a2a6	0.015114462
115	0xbd186b0d	-0.037211467
116	0xbae74e4f	-0.0017647239
117	0xbd70563d	-0.058675993
118	0xbdc072b2	-0.093968764
119	0xbe4473a7	-0.19184743
120	0xbd9764f7	-0.073923044
121	0xbbd45824	-0.0064802337
122	0x3c45627d	0.012047407
123	0x3cf9f51c	0.030512385
124	0xbc96711a	-0.018364478
125	0x3abe696c	0.0014527268
126	0xbc02ef5f	-0.007991641
127	0xbd8a773e	-0.06761025
128	0xbd4f2efe	-0.050581925
129	0x3d0623c0	0.032748938
130	0x3b9aa658	0.0047195368
131	0x3c82a578	0.015948042
132	0xbcf7e9ef	-0.030262915
133	0x3b58a984	0.0033060024
134	0xbd7f426e	-0.06231921
135	0x3db96b1e	0.09053634
136	0x3dc5028a	0.09619625
137	0x3e04322b	0.12909763
138	0x3d0662c4	0.032809034
139	0xbc3035e2	-0.010755034
140	0x3cc00bdc	0.023443155
141	0x3dcdab11	0.10042394
142	0x3d16a1b6	0.036775313
143	0x3d97b23a	0.07407041
144	0xbde22f2c	-0.110441536
145	0x3cf53dc9	0.029936688
146	0x3c4cc406	0.0124979075
147	0x3da36ae5	0.07979373
148	0xbd194adb	-0.037424903
149	0xbd031bfa	-0.032009102
150	0x3e047875	0.12936576
151	0x3d0addc5	0.033902902
152	0xbcba47b5	-0.02273927
153	0xbdc4cec4	-0.0960975
154	0xbd74e382	-0.05978728
155	0x3d450553	0.04810078
156	0xbcf397aa	-0.029735405
157	0xbd4fb071	-0.050705377
158	0x3d74f758	0.059806198
159	0x3ca69fea	0.020339925
160	0x3d89a755	0.06721369
161	0x3d1fcdc7	0.039014604
162	0x3d9355cc	0.07194099
163	0xbcb1ba6c	-0.021695338
164	0xbafb5bce	-0.001917714
165	0x3a0dcaf4	0.00054089655
166	0xbe139403	-0.1441193
167	0xbc95db73	-0.018293118
168	0xbc8f0485	-0.01745821
169	0xbd1410ff	-0.03614902
170	0xbc324c3e	-0.010882435
171	0x3d234d71	0.039868776
172	0x3ae64546	0.0017568253
173	0xbb82f34c	-0.0039962884
174	0xb93ebde5	-0.00018190553
175	0xbd281925	-0.041039605
176	0x3ca7193f	0.02039778
177	0xbe0d46df	-0.13796566
178	0xbdf7b949	-0.12095887
179	0xbdea4a7a	-0.114399865
180	0xbe07a281	-0.13245584
181	0x3d867481	0.0656519
182	0x38e1e7e6	0.000107720305
183	0xb9f8912e	-0.00047410413
184	0x3a9547ec	0.0011389232
185	0xbbabce37	-0.0052430886
186	0x3de51993	0.111865185
187	0x3cd9be38	0.026579961
188	0xba0d62c7	-0.0005393442
189	0xbca459b7	-0.02006231
190	0xbd50f412	-0.051014014
191	0xbd8adcae	-0.067803726
192	0x3c32b8ee	0.0109083485
193	0x3c4a36fa	0.012342209
194	0xbcb655b3	-0.022257661
195	0x3dd1a7bb	0.1023707
196	0x3ccffc41	0.025388839
197	0x3c4eb106	0.012615448
198	0xbd22d6ad	-0.039755512
199	0xbd147252	-0.036241837
200	0xbdb81e35	-0.089901365
201	0xbd9fa81d	-0.07795737
202	0xbdf133d4	-0.117774636
203	0xbd31a388	-0.043368846
204	0x3d05e0ca	0.03268508
205	0x3d0aefdb	0.03392015
206	0x3b333af7	0.0027348378
207	0xbde269bf	-0.11055326
208	0xbcccf4cc	-0.025019072
209	0xbc607a3c	-0.013701018
210	0x3d712ecf	0.05888253
211	0x3bf82ec8	0.007573936
212	0xbc9c447a	-0.01907562
213	0xbdc6ec73	-0.09713068
214	0xbcc74f6f	-0.02432987
215	0xbbda0f4c	-0.0066546556
216	0xbd295071	-0.04133648
217	0x3d3b099a	0.045663454
218	0xbd098ddf	-0.033582564
219	0xbd780b10	-0.060557425
220	0x3da4bc02	0.08043672
221	0xbd18ccb5	-0.0373046
222	0x3e283f29	0.16430344
223	0x3e1dd693	0.15413885
224	0x3d8ef8fa	0.06981082
225	0xba18f907	-0.0005835448
226	0x3ce5a135	0.028030971
227	0xbe1c743f	-0.1527872
228	0xbcd85ac8	-0.026410475
229	0xbcb47b6d	-0.02203151
230	0x399ab94b	0.00029511223
231	0xbceced01	-0.028921606
232	0xbd91cce5	-0.07119159
233	0x3da9e925	0.08296422
234	0xba564a19	-0.00081744936
235	0xbd1c25a2	-0.038121827
236	0xbda7d5cc	-0.081950754
237	0x3cbd4f13	0.023108995
238	0xbd0a5fa7	-0.033782627
239	0xbd57565d	-0.052572597
240	0xbd553849	-0.05205563
241	0xbd700775	-0.05860086
242	0xbdcb5bc4	-0.09929612
243	0x3c91d8de	0.017803606
244	0xbd4a74ad	-0.049427677
245	0xbde28725	-0.11060933
246	0x3c83281b	0.016010335
247	0x3ce44393	0.027864253
248	0xbd346b9e	-0.044047944
249	0xbd6befe8	-0.05760184
250	0xbdc7baeb	-0.09752449
251	0xbd8a8d92	-0.06765284
252	0x3d389524	0.045064107
253	0x3da8293a	0.08210988
254	0x3d2cf30a	0.042223968
255	0x3dab7710	0.08372319

weight f4 [16]
0	0x3f7bafd1	0.9831515
1	0x3f595333	0.84892577
2	0x3f4d3c9f	0.80170625
3	0x3f7c96fb	0.9866788
4	0x3f53a2ed	0.8267048
5	0x3f80b6a7	1.0055741
6	0x3f4e355e	0.8055018
7	0x3f836a83	1.026688
8	0x3f4a0a74	0.789222
9	0x3f4561ed	0.7710255
10	0x3f5c36b6	0.8602098
11	0x3f5bc510	0.8584757
12	0x3f7214cf	0.94563
13	0x3f40d49e	0.7532443
14	0x3f6d8bde	0.92791545
15	0x3f6a3ad1	0.91495997

bias f4 [16]
0	0x3f3bdb12	0.7338115
1	0x3f1b1ec1	0.605938
2	0x3e97dab9	0.2965906
3	0x3f09e78d	0.53868943
4	0x3ef5646e	0.47928184
5	0x3f52554f	0.8216142
6	0x3eb8a575	0.36063734
7	0x3f178730	0.59190655
8	0x3e9d7af0	0.30757856
9	0x3f077697	0.5291533
10	0x3f1306dc	0.5743234
11	0x3f1fb969	0.6239229
12	0x3f223bd0	0.63372517
13	0x3ebb6e2e	0.36607498
14	0x3f113d0e	0.5673379
15	0x3f296d9c	0.66182876

running_mean f4 [16]
0	0xbe033e98	-0.12816846
1	0xbf7ed9ce	-0.99551094
2	0xbf8ea984	-1.1145482
3	0xbf4743f0	-0.7783804
4	0xbef963d4	-0.48708975
5	0xbe5c5ebe	-0.21520516
6	0xbf36651a	-0.7124802
7	0xbf6bb16a	-0.9206759
8	0xbf921aa6	-1.1414382
9	0x3e15586d	0.14584513
10	0xbe566bcb	-0.20939557
11	0xbd841c89	-0.06450755
12	0x3f26253b	0.6490056
13	0xbf8e0aab	-1.1097006
14	0x3dd4fadd	0.10399411
15	0xbe8cec08	-0.27523828

running_var f4 [16]
0	0x3f4c2af4	0.7975304
1	0x3ed5c5be	0.41752428
2	0x3eaa46c5	0.33257118
3	0x3eeed4a1	0.46646598
4	0x3e9a5d9a	0.30149537
5	0x3f70ce9d	0.94065267
6	0x3e76a0eb	0.24084823
7	0x3f17c7ca	0.5928923
8	0x3e060c86	0.13090715
9	0x3ec5ce1b	0.38633808
10	0x3ecaa603	0.39579782
11	0x3ebf969d	0.37419596
12	0x3f106332	0.5640136
13	0x3e5973da	0.212356
14	0x3e84e4a7	0.25955698
15	0x3eaf2d46	0.34214228

weight f4 [16, 8, 1, 1]
0	0xbc475fdd	-0.012168852
1	0x3d0844dc	0.033268794
2	0x3df8e401	0.12152863
3	0x3db52034	0.08844033
4	0x3e3c4a52	0.18387726
5	0xbd4608e0	-0.048348308
6	0xbda12df7	-0.07870095
7	0x3b0dbf74	0.0021629008
8	0x3da34173	0.07971468
9	0x3da8a420	0.08234429
10	0x3e51d439	0.20491113
11	0xbdad1ad4	-0.08452383
12	0x3e33b885	0.17550857
13	0x3e273928	0.16330397
14	0xbd169953	-0.036767315
15	0x3e8cdbce	0.27511448
16	0x3dae03c4	0.08496812
17	0x3e189aed	0.1490285
18	0xbe0c1012	-0.13678005
19	0xbd81c4e0	-0.06336379
20	0x3e3ef144	0.18646723
21	0x3e4014af	0.1875789
22	0x3de39e30	0.11114156
23	0x3e929f98	0.28637385
24	0x3d675b3b	0.05648349
25	0x3dd30435	0.10303537
26	0x3df8272b	0.12116846
27	0x3cfeee2b	0.031119427
28	0x3da07dbd	0.07836483
29	0x3cc82f39	0.02443658
30	0x3d8b8c74	0.06813899
31	0x3e21a44f	0.15785335
32	0x3e475096	0.19464335
33	0x3d8af4ed	0.06784997
34	0x3e9d7c13	0.30758724
35	0xbe176457	-0.1478437
36	0x3de18756	0.110121414
37	0x3e17e198	0.14832151
38	0xbde64f6a	-0.11245616
39	0x3e7520cf	0.23938297
40	0x3e031936	0.12802586
41	0x3cfc9480	0.030832529
42	0x3c65a905	0.014017348
43	0x3d485253	0.048906635
44	0x3ea41f13	0.32054958
45	0x3b1b074c	0.0023655472
46	0x3ea6b08f	0.3255658
47	0x3d2154c8	0.039387494
48	0x3e1d178e	0.15341017
49	0x3d594965	0.05304851
50	0xbe633e42	-0.22191718
51	0x3d10bddc	0.035337314
52	0x3eb59237	0.35463116
53	0x3e6c0244	0.2304774
54	0x3da806e4	0.08204439
55	0x3de4a4bf	0.11164235
56	0x3d026e18	0.031843275
57	0xbd0f59bd	-0.03499769
58	0x3d599897	0.053124037
59	0xbdb31abb	-0.08745333
60	0x3e302def	0.17205022
61	0x3caea3d0	0.021318346
62	0xbd5b2e97	-0.05351123
63	0x3e362582	0.17787746
64	0x3e03a52b	0.12855975
65	0x3e3a6159	0.18201198
66	0xbdb6d148	-0.08926636
67	0x3d11ea17	0.035623636
68	0x3e857f16	0.2607352
69	0x3de63305	0.112402
70	0x3e8f92e0	0.28041744
71	0x3e459075	0.19293387
72	0x3e33b8eb	0.1755101
73	0x3d94090f	0.0722829
74	0xbd97dee9	-0.074155636
75	0x3d8dc7c5	0.06922869
76	0x3ddf748d	0.10910902
77	0x3ddbffce	0.1074215
78	0x3e89e251	0.26930478
79	0x3e16e29e	0.14734885
80	0x3e22c52b	0.15895526
81	0x3d2eadf2	0.042646356
82	0x3d80d5de	0.06290792
83	0x3c942a5b	0.018086603
84	0x3cde4a8b	0.027135154
85	0x3e090be6	0.13383445
86	0x3cb5e87d	0.022205586
87	0x3e13d85e	0.14438006
88	0x3ddf71a0	0.10910344
89	0x3da77cd9	0.0817811
90	0x3c82513e	0.01590788
91	0x3d1f3122	0.038865216
92	0x3e05c94e	0.13065073
93	0x3c12f029	0.008968391
94	0x3da0d1a7	0.07852488
95	0x3d9916f6	0.074750826
96	0x3e132fb8	0.14373672
97	0x3c934b29	0.017980175
98	0x3d83ebd3	0.06441464
99	0x3d7faeca	0.06242255
100	0x3d3d67e7	0.046241667
101	0xbc2e5d93	-0.010642427
102	0x3e4bc36b	0.19898765
103	0xbd7eda83	-0.062220108
104	0x3e5284ca	0.20558468
105	0x3e0c3c13	0.13694791
106	0x3d80d023	0.06289699
107	0xbd141554	-0.036153153
108	0x3e179dfb	0.14806359
109	0x3e49aac5	0.1969405
110	0x3c07abce	0.0082807075
111	0x3e2634cb	0.16231076
112	0xbd616742	-0.055030115
113	0x3d3e480c	0.046455428
114	0xbd28a6e0	-0.04117477
115	0xbe55c084	-0.2087422
116	0x3b4bc7d1	0.0031094442
117	0xbc9fce3c	-0.01950752
118	0x3e136428	0.14393675
119	0x3d4ccdca	0.050000943
120	0x3d919095	0.07107655
121	0x3d898ced	0.067163326
122	0x3e63a107	0.22229396
123	0x3d5007ee	0.050788812
124	0x3d04df02	0.03243924
125	0x3ce47823	0.027889317
126	0x3d27d220	0.040971875
127	0x3e083b91	0.13303973

bias f4 [16]
0	0x3f47a001	0.7797852
1	0x3f04b9e1	0.5184613
2	0x3f099f64	0.53758836
3	0x3eb5e793	0.3552824
4	0x3f1110c8	0.5666623
5	0x3f0035a7	0.50081867
6	0x3eed8496	0.46390218
7	0x3ef8002b	0.48437628
8	0x3dbac69e	0.091199145
9	0x3e9905bb	0.29887185
10	0x3e7faa77	0.24967371
11	0x3f15a625	0.5845664
12	0x3f43241c	0.76226974
13	0x3f33695e	0.7008265
14	0x3e8f10fc	0.27942646
15	0x3f236e6e	0.6384038

weight f4 [32, 16, 3, 3]
0	0x3de2ec49	0.11080224
1	0x3c68cc95	0.014208932
2	0x3d95536c	0.07291302
3	0xbd44372c	-0.04790418
4	0xbe5286f9	-0.205593
5	0x3c718df5	0.014743318
6	0x3d8a5ccd	0.067559816
7	0xbd8c6323	-0.06854846
8	0x3c756e0a	0.014979849
9	0x3e02ca0f	0.12772392
10	0x3c09c851	0.008409576
11	0xbd54f0d5	-0.051987488
12	0x3d479fbb	0.048736315
13	0xbd22fe27	-0.03979316
14	0xbc5b4343	-0.013382736
15	0x3cfda88f	0.030964164
16	0xbc48bf91	-0.012252704
17	0xbd8df2c5	-0.0693107
18	0x3e0447b2	0.12917975
19	0x3d883026	0.066498086
20	0xbd2777fe	-0.040885918
21	0x3d932f2c	0.07186732
22	0x3a3c112e	0.0007174191
23	0x3d85ba2d	0.06529651
24	0x3ca8bffb	0.020599356
25	0x3dd984ff	0.1062107
26	0xbdc635ba	-0.09678216
27	0xbc823079	-0.015892254
28	0x3bd3ec0f	0.0064673494
29	0x3d125735	0.0357277
30	0xbc177ea6	-0.009246504
31	0x3c2351ab	0.009968202
32	0x3c5d2e4a	0.013499806
33	0x3bc59c58	0.0060306005
34	0xbcbf0ad7	-0.023320599
35	0x3d4911c4	0.04908921
36	0x3e144c51	0.14482237
37	0x3df50fbb	0.11965891
38	0xbd8708ea	-0.06593497
39	0x3d89ebbe	0.067344174
40	0x3ddc2617	0.107494526
41	0xbdddabbb	-0.108237706
42	0x3d4590dd	0.048233856
43	0x3d33bc57	0.043880787
44	0xbe04da8d	-0.12973996
45	0x3dd4cd32	0.103907004
46	0xbbfa9c19	-0.007648003
47	0xbd607b9d	-0.054805387
48	0xbcda7018	-0.026664779
49	0xbdb95864	-0.09050062
50	0x3ac31c69	0.0014885786
51	0x3c95cac4	0.018285163
52	0x3b847595	0.004042337
53	0xbd25fe4a	-0.040525712
54	0x3e1e0dc0	0.15434933
55	0x3d326302	0.043551452
56	0xbd7812c7	-0.060564782
57	0x3cbd2d57	0.023092909
58	0x3daac9fa	0.08339305
59	0xbd8983ff	-0.067146294
60	0x358e6665	1.0609625e-06
61	0xbc8a3a83	-0.016873604
62	0xbd9915bf	-0.07474851
63	0xbd06c1ec	-0.032899782
64	0x3cbc3322	0.0229736
65	0xbd031068	-0.031998068
66	0xbd922990	-0.07136834
67	0xbc3c962a	-0.011510411
68	0xbdaf962d	-0.08573566
69	0x3deb6742	0.11494304
70	0x3d806a41	0.06270266
71	0xbd8f6154	-0.07000986
72	0x3dfc6720	0.12324357
73	0x3aa047bb	0.0012228409
74	0x3c4bab69	0.012431004
75	0x3cc1e243	0.02366746
76	0x3d22fdd7	0.03979286
77	0xbc277a08	-0.010221966
78	0x3caf422f	0.021393863
79	0xbd3d2619	-0.04617891
80	0xbd6b411a	-0.057435133
81	0x3d8cc83e	0.06874131
82	0xbc03ae50	-0.008037165
83	0xbd5eb255	-0.05436929
84	0x3c0243a4	0.007950697
85	0x3d2f7c20	0.042842984
86	0x3cfbf0df	0.030754505
87	0x3d21e072	0.03952069
88	0xbca3f08f	-0.020012168
89	0x3da50482	0.080575004
90	0xbd15ae49	-0.036543164
91	0xbcd1fb5d	-0.025632555
92	0xbcea5635	-0.02860556
93	0x3d042119	0.032258127
94	0x3ce7048b	0.028200408
95	0xbb809232	-0.003923678
96	0xbcffa36d	-0.031205857
97	0xbd1b6a66	-0.037943266
98	0x3a0cb151	0.00053669984
99	0x3db8ba7c	0.09019944
100	0x3d83c127	0.06433325
101	0x3daf4ff3	0.08560171
102	0x3c93ec00	0.01805687
103	0xbdbb39ba	-0.0914187
104	0x3d5b4653	0.053533863
105	0x3cd03770	0.02541706
106	0xbd93507e	-0.07193087
107	0xbcde818e	-0.027161386
108	0x3e00d33a	0.12580577
109	0xbb7b6a64	-0.0038362974
110	0x3dacdafb	0.08440205
111	0x3cea5065	0.028602788
112	0xbdef4b3d	-0.116842724
113	0xbca33be0	-0.019926012
114	0x3bf99f7c	0.007617889
115	0x3c13cd85	0.009021168
116	0x3d4fd6d1	0.050741974
117	0x3d82e334	0.06390992
118	0x3d1d132f	0.038348373
119	0x3d014633	0.031561088
120	0x3d009988	0.03139642
121	0x3dd4a08e	0.10382186
122	0x3c9de19f	0.019272624
123	0xbd01ed2f	-0.031720337
124	0xbc259b91	-0.010107891
125	0xbd88ae81	-0.06673909
126	0x3e20ab2b	0.15690295
127	0x3d2e5fb8	0.042571753
128	0x3dee08ff	0.116228096
129	0x3c447c23	0.011992487
130	0xbd0bc0b6	-0.03411933
131	0x3d0060a6	0.03134217
132	0x3be3ce5e	0.006952091
133	0x3c6b8424	0.0143747665
134	0xbcb7b75c	-0.0224263
135	0x3e15af95	0.1461776
136	0xbd3f1f1b	-0.046660524
137	0x3ce292c4	0.027657874
138	0xbcc98279	-0.024598347
139	0xbda712f6	-0.081579134
140	0xbcfe532f	-0.031045524
141	0x3cbfacf0	0.023397893
142	0xbd5b8672	-0.053595014
143	0x3cb2d8b8	0.021831855
144	0x3d36c4be	0.04462122
145	0xbd978e87	-0.07400232
146	0xbcac6e6f	-0.021048753
147	0x3df0647c	0.11737916
148	0xbd59904c	-0.053116128
149	0x3dd0b5a2	0.10190894
150	0x3c81f61e	0.015864428
151	0xbd69b6b2	-0.057058997
152	0xba00207a	-0.0004887652
153	0xbba68217	-0.005081426
154	0xbcf6f166	-0.030144405
155	0xbbb92a72	-0.005650812
156	0x3d4afbef	0.04955667
157	0xbcef828e	-0.029237058
158	0xbcbd3537	-0.023096664
159	0x3c4738ee	0.012159569
160	0x3d0283a1	0.031863812
161	0xbda7fc28	-0.08202392
162	0xbb0f2b69	-0.0021845943
163	0xbdad9b2b	-0.084768616
164	0xbcc2497f	-0.023716686
165	0x3d9d1d1d	0.076715685
166	0x3d161525	0.03664126
167	0x3da1e73a	0.07905431
168	0x3ca3f55a	0.020014454
169	0xbd9fcabb	-0.0780234
170	0x3c8d671d	0.017261082
171	0x3c1898cf	0.009313776
172	0xbe096225	-0.13416345
173	0x3da57a81	0.080800064
174	0x3d451c3b	0.048122626
175	0xbd69391d	-0.056939233
176	0x3db3deff	0.087827675
177	0xbcda27f2	-0.026630376
178	0xbcd71852	-0.026256714
179	0x3d5f94dd	0.054585326
180	0xbbb8a165	-0.005634474
181	0x3dc7cb98	0.09755629
182	0xbde2916e	-0.11062895
183	0x3dd5a863	0.10432508
184	0x3e1272ae	0.1430156
185	0xbce8fd19	-0.028440999
186	0xbc1e3860	-0.009656996
187	0x3d91af25	0.07113484
188	0xbe0baf09	-0.1364099
189	0x3b281247	0.002564566
190	0x3e3362e6	0.17518196
191	0xbd87f12f	-0.06637799
192	0x3e2b3323	0.16718726
193	0x3e5aaf50	0.21355939
194	0x3d086945	0.033303518
195	0xbd1693db	-0.0367621
196	0x3de7e633	0.11323204
197	0xbd884ea2	-0.06655623
198	0xbd9fcdc0	-0.078029156
199	0xbda6e07e	-0.08148287
200	0x3d878de7	0.066188626
201	0x3d912d1c	0.07088682
202	0xbdae7aff	-0.085195534
203	0x3d7b40a6	0.06134095
204	0xbd902e57	-0.070400886
205	0xbe103be3	-0.14085345
206	0x3c8a8fbe	0.016914245
207	0x3b775fa0	0.0037746206
208	0xbcb2e48a	-0.021837492
209	0x3d0bd8c4	0.03414227
210	0x3cc5337d	0.024072403
211	0x3dcad4f3	0.09903898
212	0x3d721c87	0.059109237
213	0xbcbb12bd	-0.022836084
214	0x3d047fa4	0.03234829
215	0xbcfde29e	-0.030991849
216	0xbcb0350b	-0.021509668
217	0xbcd26d1a	-0.02568679
218	0xbd69d6c7	-0.057089593
219	0x3d84f10a	0.06491287
220	0x3cd4e89d	0.025989825
221	0x3d8a48f0	0.06752193
222	0xba97b401	-0.0011574031
223	0xbca16dae	-0.01970562
224	0xbd545035	-0.051834304
225	0xbb4e2f7c	-0.0031461408
226	0xbba692b6	-0.0050834073
227	0x3d7f35e2	0.062307246
228	0xbd1a0a4b	-0.037607472
229	0xbd52931a	-0.05140982
230	0xbbdeb95a	-0.006796998
231	0xbcfda3f9	-0.030961977
232	0xbbc833c4	-0.0061096866
233	0x3cba6d1a	0.022757102
234	0x3d76b6c7	0.060232904
235	0x3cbed887	0.023296608
236	0xbcb4df7b	-0.02207922
237	0x3d7a1b71	0.061061326
238	0x3d931d8a	0.071833685
239	0xbb2e8f16	-0.0026635579
240	0x3dbee804	0.09321597
241	0x3d4bbab8	0.049738616
242	0x3c1020e9	0.008796909
243	0xbb0a26cf	-0.002108026
244	0xbaa933d0	-0.0012909118
245	0x3abf8290	0.0014611054
246	0x3dcefbc7	0.101066165
247	0x3c07e4f7	0.008294336
248	0x3c6a5124	0.014301572
249	0xbd7d13fb	-0.061786633
250	0xbcdea94b	-0.027180335
251	0x3b977cca	0.0046230303
252	0x3d06fec9	0.032957826
253	0xbb5c4b10	-0.0033614077
254	0xbd9c5950	-0.076342225
255	0x3dd42991	0.10359491

weight f4 [32]
0	0x3f85744c	1.0426116
1	0x3f7fad73	0.9987404
2	0x3f554199	0.8330322
3	0x3f5f859a	0.87313235
4	0x3f81ed42	1.015053
5	0x3f65135b	0.8948266
6	0x3f724e66	0.94650877
7	0x3f70088f	0.9376306
8	0x3f8250b8	1.0180883
9	0x3f722ce5	0.94599754
10	0x3f7bb388	0.9832082
11	0x3f6b14ef	0.9182882
12	0x3f668a43	0.9005472
13	0x3f840aa0	1.0315742
14	0x3f68d588	0.9095082
15	0x3f7b589b	0.98182076
16	0x3f6b5007	0.9191899
17	0x3f7e8006	0.994141
18	0x3f79b75b	0.97545403
19	0x3f65cbf4	0.8976433
20	0x3f7bbe01	0.983368
21	0x3f850e61	1.0395013
22	0x3f803a19	1.001773
23	0x3f7d9f9d	0.99071676
24	0x3f595d74	0.84908223
25	0x3f6c64d5	0.9234136
26	0x3f7f3da5	0.9970344
27	0x3f69e657	0.91367096
28	0x3f8517d3	1.0397896
29	0x3f49010c	0.7851722
30	0x3f7342df	0.9502391
31	0x3f6754bc	0.9036367

bias f4 [32]
0	0x3e536563	0.20644145
1	0x3e2c9cbd	0.16856666
2	0x3dec260f	0.115306966
3	0x3ebc2bbf	0.36752126
4	0x3ee90a6d	0.45515767
5	0x3f12457c	0.57137275
6	0x3e890000	0.26757812
7	0x3f019e50	0.5063219
8	0x3d5b482c	0.053535625
9	0x3e915393	0.28384075
10	0x3e75c9b6	0.24002728
11	0x3ed6a160	0.41919994
12	0x3e6ad9f6	0.22934708
13	0x3e930989	0.28718212
14	0x3f019445	0.50616866
15	0x3f17b289	0.592568
16	0x3e44a4fe	0.19203565
17	0xbcb3cabc	-0.021947257
18	0x3ebdefb0	0.3709693
19	0x3eff3961	0.49848464
20	0x3f04a7bc	0.5181844
21	0x3e03b53d	0.12862106
22	0x3e0c5481	0.1370411
23	0x3e9b98e7	0.30390093
24	0x3f0d75f8	0.5525813
25	0x3e8d16bf	0.27556416
26	0x3e499d0a	0.19688812
27	0x3eb569c5	0.35432258
28	0x3ebb7dd7	0.36619446
29	0x3f08c778	0.53429365
30	0x3e180d4d	0.14848824
31	0x3f0bd9c9	0.5462919

running_mean f4 [32]
0	0x405b5f10	3.4276772
1	0x3f9169d7	1.1360425
2	0x3f149a68	0.58048105
3	0x40032a52	2.049458
4	0xc0cae686	-6.34064
5	0xc01bfc07	-2.4372575
6	0xc00529b1	-2.0806696
7	0xbfb04dc5	-1.3773733
8	0xbf54817d	-0.83010083
9	0xc0805b97	-4.0111804
10	0xc04070d5	-3.0068867
11	0xbe4709da	-0.19437352
12	0xc09387e4	-4.610338
13	0xbf5303dc	-0.82427764
14	0x400ef9b0	2.2339897
15	0xbdcbcad4	-0.09950796
16	0x400d806d	2.2109635
17	0xc004846d	-2.0705826
18	0xbfd88ea7	-1.6918534
19	0x3f013f55	0.5048726
20	0xbd598e49	-0.05311421
21	0xc0234551	-2.5511057
22	0xc0220281	-2.5314028
23	0xc02c0fb1	-2.6884577
24	0x3f42d5de	0.76107585
25	0xbf76ca82	-0.9640275
26	0x405fb4a1	3.4953997
27	0x3fad9106	1.3559883
28	0x3cebbdf8	0.028777108
29	0xc026d10d	-2.6065094
30	0x4092d614	4.5886326
31	0x3fb9444b	1.4473966

running_var f4 [32]
0	0x3ff01cb6	1.8758762
1	0x3f9e086f	1.2346324
2	0x3f466b6a	0.7750765
3	0x3f6092f8	0.87724257
4	0x3ff00e49	1.875436
5	0x3f881ed3	1.0634407
6	0x3f9bc892	1.2170584
7	0x3f9bee28	1.2182055
8	0x3fa691ef	1.3013285
9	0x3fe90a56	1.8206279
10	0x3f7e60be	0.99366367
11	0x3f553454	0.8328297
12	0x3fb0a3f3	1.3800033
13	0x3fd87977	1.6912068
14	0x3f9b1f23	1.2118877
15	0x3fa97b0a	1.3240674
16	0x3f854278	1.041091
17	0x3fa1aef6	1.2631519
18	0x3f35aaed	0.7096394
19	0x3f7b1347	0.9807629
20	0x3ffe5c06	1.9871833
21	0x3f884fa2	1.0649302
22	0x3fedaef3	1.8569015
23	0x3fa8ff4d	1.3202912
24	0x3f784852	0.9698535
25	0x3f79e241	0.9761086
26	0x3fe1c620	1.7638588
27	0x3f3edc90	0.745553
28	0x3f9d3d2e	1.2284296
29	0x3f3b022a	0.7305018
30	0x3f91c740	1.1388931
31	0x3fce396d	1.6111275
