models/alike-s.pt (torch, 772415 bytes, 51 tensors)

weight f4 [8, 3, 3, 3]
00000000: 9d22 853d 31a4 fd3d 874d 02be 79a8 f5bd
00000010: 1aba eebd abc3 dd3d 13ff eb3d a70f 91bd
00000020: 5e9c 8aba 89c7 d1bd ae96 313e 7f10 063e
00000030: bcb9 173e 1af1 973d a818 9dbd 5e33 1bbe
00000040: 58e7 47be c4ad 733b 5cd0 b7ba 8242 4a3e
00000050: 60c8 c9bc e044 8d3d 8d38 4f3c b3e9 ea3d
00000060: 7d65 10be aeca 053d eb6f 6ebe 237b 66be
00000070: 8563 223e edc8 7c3c 24b3 31bd 9c71 803d
00000080: e488 583e 38c8 efbc e0d7 05be cc7e 80bd
00000090: d821 53bd eb19 5abd b284 f53d 77e0 62bd
000000a0: 3385 0ebe db38 093e 230f 13bd bff9 8a3b
000000b0: 47ab a83d ea5f 8cbc 1472 9fbd 951c 3b3e
000000c0: a9bb 32be 1d3e 483e a63e 6abd fd68 e5bd
000000d0: 074a 613d 16e3 6b3d 2b8a 12bd 8e66 afbd
000000e0: e80f ed3d d8f5 a83d 30f0 f0bd 9c4f 18bd
000000f0: 3bec 92bd 2ca5 dc3c f1e8 4c3d 1c9b dfbd
00000100: bb2f 99bd 9d95 203e 26b6 b4bc 4d7b 063e
00000110: 9799 db3c 2033 1abd e2b7 b7bd a0c4 423d
00000120: be57 dd3c 9ade 7f3d c655 2e3e 8fb9 403b
00000130: f4ba 91bc eff3 923d 59f5 813d 84e3 df3d
00000140: eef3 79bd 9303 2abe 2725 50be 297e ac3d
00000150: b195 0e3e 9e95 133e 802c a13c 476c 9e3d
00000160: 6ee8 543c 627e 94bd d85a d03d f81d 64be
00000170: 2350 6dbe 3b18 4e3d f3b2 c4bd 0517 023d
00000180: 7cf9 083e 1b2b 913d b20a 233e 35f0 e8ba
00000190: 3af8 a3bd 99a1 0abe 4bbb 1a3e cdd3 cdbd
000001a0: 9f6d 453d 6777 fbbc 8a2c dcbc 45ca ed3d
000001b0: 2896 e83d 4b50 b7bd b1f2 e8bd 3f5c 183b
000001c0: 78a5 6a3d 477c 05bd 0873 bd3c 3d1f 2dbd
000001d0: 42dd 26bd baff 4abd 083f 28be 0943 7dbd
000001e0: 3946 d13d 1cc9 fb3d 5b15 dcbc 03be 7e3d
000001f0: 3189 cf3d 6704 8ebd 5407 90bd 9177 a43d
00000200: ba31 cabd 617e 403e f6f9 8ebd 27f2 9dbd
00000210: 20a9 043e 31d5 383e 1074 25bd 82e4 10be
00000220: abdd aebd cbf1 843d 3604 f1bb 56ec 313e
00000230: a2c2 03be 0db8 a03d f8f1 f9bc 2110 853d
00000240: 1663 3fbe 788c 883d 071c 723c aecb 36be
00000250: b035 21be 8b3d 4a3e 70df 5a3e a93f bd3d
00000260: 10fe 64bd 04f3 f8bd ba5a bfbd 36e1 85bd
00000270: 6f88 aebd 1bc1 be3b 0fb1 19bd acf4 313e
00000280: d0c8 183e 6520 bc3d 7e68 4c3d 9435 113e
00000290: 1305 033e 9dba 1b3e f9c2 41be a940 24be
000002a0: aa43 56bd f379 d3bd 56dc 15bd bc3e e03d
000002b0: 558f 66bd bdb4 e5bc f6c0 b5bd 8fd2 34be
000002c0: 905f e53d 5a2e 0a3e 20b2 8e3d 7f79 efbd
000002d0: 4475 6abd afe5 8c3d ed03 e23c f5d2 7d3d
000002e0: 02fa 7cbd 9ca3 4dbe 40ad a7bd 054b a23d
000002f0: 06e8 373d 9b79 a6bd c333 b93d 52ea 573e
00000300: 341a 21be e998 3d3d 1c73 8ebd 4694 0bbe
00000310: e41b 763d a409 ae3d ccfa 733c 76e0 cd3d
00000320: bb6c c03c 75b4 9abd a87b 99bd 0296 273e
00000330: fa06 3dbe c4e4 29be 5095 3f3e 9df8 50bd
00000340: 83cc 003c edd7 583e 195e 1bbe a69d 9fbd
00000350: c564 ca3d cd30 85bc e088 b3bd def8 7ebc
0.065007426 0.12384833 -0.12724887 -0.11995024 -0.1165659 0.10828336 0.11523261 -0.070830636
-0.0010575166 -0.102431364 0.17342636 0.1309223 0.14816946 0.07419033 -0.076707184 -0.15156314
-0.19521844 0.003718243 -0.0014023888 0.19751933 -0.024631679 0.068979025 0.01264776 0.11470356
-0.14101215 0.032663994 -0.23284881 -0.2250791 0.15858276 0.015428764 -0.043383732 0.06271669
0.2114597 -0.029270276 -0.13070631 -0.062741846 -0.051545948 -0.053247374 0.119882 -0.055389848
-0.13917999 0.13400595 -0.035903107 0.004241198 0.082357936 -0.01713558 -0.077854306 0.18272622
-0.17454399 0.19554944 -0.057188652 -0.112016656 0.05500224 0.057589613 -0.0357763 -0.08564483
0.115752995 0.08250016 -0.11764562 -0.037185296 -0.07173964 0.026934229 0.050026838 -0.10918257
-0.07479807 0.15682073 -0.022059511 0.13132973 0.026806636 -0.037646413 -0.0897062 0.047550797
0.027019378 0.06246815 0.17024907 0.0029407477 -0.017789342 0.07175433 0.063456245 0.10932067
-0.061023645 -0.16602926 -0.20326672 0.08422501 0.1392429 0.14412543 0.01967454 0.07735496
0.012994869 -0.07250668 0.10173577 -0.22277057 -0.23175101 0.050316077 -0.09604444 0.031760234
0.1337642 0.070883 0.15922049 -0.0017771783 -0.0800633 -0.13538207 0.15110509 -0.100501634
0.048200246 -0.030696584 -0.026876707 0.116108455 0.11356765 -0.089508615 -0.11374415 0.0023248342
0.05728671 -0.032589223 0.02312614 -0.04226612 -0.04073835 -0.049560286 -0.16430295 -0.061831508
0.10218472 0.12294218 -0.026865652 0.062192928 0.10133589 -0.069344334 -0.07032648 0.08030618
-0.09872766 0.1879821 -0.0698127 -0.077122025 0.12955141 0.18050076 -0.04039389 -0.14149669
-0.085383736 0.06491431 -0.0073552383 0.17375311 -0.12867215 0.07847605 -0.030510888 0.06497217
-0.18690142 0.06667417 0.01477719 -0.17851135 -0.15743136 0.1975004 0.21374297 0.09240658
-0.055906355 -0.121557266 -0.093434766 -0.06537096 -0.085221164 0.00582136 -0.03752237 0.17378491
0.14920354 0.09185866 0.04990434 0.14180595 0.12794904 0.15207906 -0.18922032 -0.16040291
-0.052310623 -0.10325994 -0.03658708 0.10949466 -0.056289036 -0.028040284 -0.08874695 -0.17658447
0.11199868 0.13494244 0.069675684 -0.116930954 -0.05724074 0.06879746 0.027589763 0.061968762
-0.061761864 -0.20081943 -0.08187342 0.07924465 0.04489901 -0.08128663 0.09043076 0.2108548
-0.15732652 0.046288405 -0.06955549 -0.1363078 0.060085192 0.084979326 0.014891338 0.10052578
0.023489347 -0.07553951 -0.07494289 0.16365817 -0.18459693 -0.16591173 0.18709302 -0.051018346
0.007861259 0.21176119 -0.15172614 -0.07793741 0.098825015 -0.016258622 -0.08766341 -0.015562264

weight f4 [8]
00000000: 47be 663f 12f6 6f3f 2d34 683f b236 653f
00000010: cd93 653f 00ce 773f 41a1 7d3f 3930 7f3f
0.9013409 0.9373485 0.90704614 0.89536583 0.8967865 0.96798706 0.9907418 0.99682957

bias f4 [8]
00000000: e777 5e3e 0900 c43e ded3 e63d dacf f43e
00000010: 649b 343e 06cf 023f d7ad ea3d 9da1 ea3e
0.21725427 0.38281277 0.11270879 0.47814828 0.17637402 0.5109714 0.114589386 0.45826426

running_mean f4 [8]
00000000: 1802 b83b dbd0 cb3b 7555 343e c4ca 6ebc
00000010: 3611 513d e941 613b 0919 dfbd 99f2 99bc
0.005615484 0.006219966 0.17610724 -0.01457471 0.051041804 0.003437156 -0.10893447 -0.018792437

running_var f4 [8]
00000000: 5010 063b ee7f 693b 6004 413c b702 7a3b
00000010: b8cd 8e3b 02a4 5b3b 3d8e 943b 80c1 ca3b
0.00204565 0.003562923 0.011780828 0.003814859 0.0043580197 0.0033514504 0.0045335577 0.006187618

weight f4 [8, 8, 3, 3]
00000000: e81c 013e 250c 043e 253c 093e 1629 aa3b
00000010: cc5e 983d f97b 373c 8f74 573c be38 d43d
00000020: 2f15 5d3d ca97 d23c b440 ac3d 1720 de3d
00000030: 0106 743d 866a cf3d acfb babd 33bf eabd
00000040: d158 ebbd 4c2d d6bc 16c3 b8bd b66d 83bc
00000050: 6692 e93c 623e a83d 9d92 6f3d 48f9 743d
00000060: 5035 363d a3b2 c6bd 3a47 90bc ac4b 003d
00000070: 3338 05bc ba1e 59bd 108f eabd d9d4 53be
00000080: c836 3dbe 718b ff3c cd5a bf3c f9b6 a63b
00000090: db88 3e3d ddde 4e3d 720f e1bc 092b 78bd
000000a0: 4334 a1bd 8c1f 853b f20a a1bc 2efd 90bd
000000b0: 0785 99bc baca 40bd 2f8e b4bd 7666 c7bd
000000c0: 5986 a5bc ad4c 14be d05d 20be e500 c6bd
000000d0: 0bb6 95bd c154 4fbd 70d3 e53c cb75 a7bd
000000e0: c7c6 06be 976d 033b 32a6 87bd dc31 d7bc
000000f0: c388 b73c c48c e43d 06d8 df3d 3ab9 903c
00000100: 4e31 893d 605d 1e3d c98d 8d3d 9012 bcbb
00000110: 1747 ab3c 0393 c03c 72df 4cbd b79e a83d
00000120: fb1e 43bd 7938 34bc 39af acbd aa2f 01bd
00000130: fb44 3dbd ab35 40bd cc8a 45bd 72b2 7fbd
00000140: 14a0 28bc 0c9b debc 8c7a 6abc 1728 cdbc
00000150: 379e b1bc 9ae8 86bc 7a68 843d f930 2cbc
00000160: 1bfa 293d 1e90 2b3e d2a5 b2bc 117c 623d
00000170: 3fe5 483a 84af dcbd 1529 203d 2235 afbb
00000180: 8eb3 703d 1d7d d53d a0ce cd3c 62b5 193c
00000190: 4e19 8e3d a55a b3bd 0557 7939 fd8f 47bc
000001a0: b9ed a6bd deb2 5a3c 29de aa3b 3264 1bbe
000001b0: ff8d 3dbd 1457 b0bd d3c9 063d 63a5 34bd
000001c0: e0e5 7cbd 84b1 afbc 98c5 15bd 5eb6 f23b
000001d0: bfce 983d 9909 6f3d b8ca 00bd 4148 f33d
000001e0: 3e6e 17bd a5a5 903d 035f 303e 610a fe3c
000001f0: f187 d03d 069e 233d fcfd 1d3d a678 68bc
00000200: cda2 88bc 0bcd cd3d 751e abbb 1067 cfbd
00000210: 5a54 933d 145a 17be 5c31 0fbd 68ec 003e
00000220: 866f ee3c 8f15 8a3c 8472 cfbb 465b 133e
00000230: a22e ed3c dd03 533d bc53 093e 827e 9cbd
00000240: 00ff 3dbc 7b1c 03bd d1b3 4cbc 1286 0c3d
00000250: c550 a5bd 7d2f debb c761 e33a 6cf0 46bd
00000260: ba83 2b3d 960f d3bd e64e 86ba 5076 3cbc
00000270: c463 48be c006 95bd 5e2d 95ba e530 82bd
00000280: 6620 5b3d 2bcb 5fbc 0739 83bb 99fe 023d
00000290: 8dda 7fbd baba 21be 35d6 e33d abee cdbd
000002a0: 2206 62bd 2e01 08bd fc34 043d b97d 29bc
000002b0: df70 c33d e1a9 36bb 9896 b2bc 49ee ba3d
000002c0: f0ef 9cbd a88a 97bb 335f 723c 761c 13bd
000002d0: 385e 00bc 5918 34bb 3388 62bd 04a9 553d
000002e0: 67ba 10bd e3c4 62bc 6f3c 84bd 3530 6cbc
000002f0: 35a4 66bc 0f5a 41bd 8455 b1bd 18f4 f2bc
00000300: 5577 eabd 68ab 2ebe 1dfe 693d 7531 13bd
00000310: 7137 3dbd f485 49bd 74a5 a1bc 8cb2 8b3c
00000320: c637 53bd 117c 4dbd fa3a f73c 3890 3dbd
00000330: 9604 e53b f4af 483d 6ff4 80bc 811d abbd
00000340: ab57 24bc 2804 963d 1757 9bbd 73da 89bc
00000350: 57da c43d 0b92 8ebb 0e95 eb3c 97ae 52bd
00000360: a4e3 aa3c fcdd 9f3d b27e c53c 210d d6bc
00000370: 182d 473d de2d c13c eb8d 5f3d 13fb 8a3b
00000380: 21a5 2abc e730 b0bd a6ea 20be 171c 15be
00000390: 1b02 983d d345 2abe 533a 99bd d4d4 02be
000003a0: 1e55 3cbe c5cb 05bd 43ce eb3d fbc0 32bc
000003b0: 8c52 763d 25f9 4bbd 88c1 debd edb2 9b3d
000003c0: a149 bd3d b892 d93c e5eb dbbd 1742 17bc
000003d0: 3d3f 7fbd 493b 143c 92e1 96bd c6b6 77bd
000003e0: b183 423d c522 32bc 18e7 833d cf7e 673d
000003f0: 3e80 913c fb72 e43a 9642 20bd b61d 8c3d
0.12608683 0.12895258 0.1340185 0.005192886 0.07439956 0.011198991 0.013150348 0.10362385
0.05397528 0.025707144 0.08410779 0.108459644 0.05957604 0.101277396 -0.09130034 -0.114622496
-0.1149155 -0.026144646 -0.09021585 -0.016043525 0.028512191 0.082150236 0.05848943 0.059808046
0.044484437 -0.09702041 -0.017612088 0.031322166 -0.008131075 -0.05300782 -0.11453068 -0.20686664
-0.18477929 0.03119442 0.023358727 0.00508773 0.046517234 0.050505508 -0.027473185 -0.060587917
-0.07871296 0.0040625986 -0.01965854 -0.0707954 -0.01874019 -0.047068335 -0.08816182 -0.0973634
-0.020205664 -0.14482374 -0.15660787 -0.09668139 -0.073101126 -0.050617937 0.028054923 -0.08176764
-0.13161765 0.0020054334 -0.06623496 -0.026268892 0.02240408 0.111596614 0.10929875 0.017666448
0.06698857 0.038663268 0.06911809 -0.0057395175 0.020907922 0.0235076 -0.05001778 0.082333975
-0.047636967 -0.010999792 -0.084318586 -0.031539597 -0.046208363 -0.04692618 -0.04822807 -0.062426038
-0.010292072 -0.027173541 -0.014311444 -0.02504353 -0.021681888 -0.016468335 0.0646524 -0.010509723
0.041498285 0.16754195 -0.021807585 0.0552941 0.0007663555 -0.107756644 0.03910168 -0.00534691
0.058764987 0.10424254 0.02512294 0.009381624 0.0693842 -0.087575234 0.00023778908 -0.012180326
-0.08150811 0.013348309 0.005214472 -0.1517494 -0.046277996 -0.08610359 0.03290732 -0.044103038
-0.061742663 -0.02144695 -0.036565393 0.007406994 0.07461309 0.058358762 -0.031443328 0.11879016
-0.03697037 0.07062844 0.17223744 0.031010808 0.10182179 0.039945625 0.038572297 -0.014188921
-0.016679192 0.100488745 -0.0052221366 -0.101270795 0.07193823 -0.14780456 -0.034959182 0.12590182
0.029105913 0.016855983 -0.00633079 0.14390287 0.0289529 0.051517356 0.13410848 -0.07641317
-0.011596441 -0.032009583 -0.012494043 0.034307547 -0.08072046 -0.0067805634 0.0017347866 -0.048569128
0.04187367 -0.10305707 -0.0010246902 -0.011502817 -0.19569308 -0.07276678 -0.0011381318 -0.06356982
0.053497694 -0.013659279 -0.004004601 0.031981084 -0.062464286 -0.15793887 0.11124841 -0.10055288
-0.05518163 -0.03320425 0.032277092 -0.010344916 0.09543013 -0.0027872252 -0.021800324 0.091274805
-0.07662952 -0.0046246834 0.014793205 -0.035915814 -0.0078349635 -0.0027480333 -0.05530567 0.05216314
-0.035334017 -0.013840887 -0.06456839 -0.01441579 -0.014077236 -0.047205027 -0.08658889 -0.029657409
-0.11448542 -0.17057574 0.057127107 -0.035935838 -0.04619545 -0.049200013 -0.019732215 0.017052911
-0.05156686 -0.050167147 0.03017949 -0.046280116 0.006989072 0.048995927 -0.015741555 -0.08355237
-0.010030667 0.073250115 -0.075849704 -0.016827798 0.096119575 -0.004350906 0.028757598 -0.051436033
0.0208605 0.07806012 0.024108265 -0.026129307 0.04862699 0.023581441 0.054578703 0.004241356
-0.010415346 -0.086030774 -0.15714511 -0.14561497 0.074222766 -0.16628198 -0.074818276 -0.127765
-0.18391845 -0.032665033 0.11513951 -0.010910268 0.060137317 -0.04979815 -0.10876757 0.07602487
0.09242559 0.026559219 -0.10738353 -0.009232066 -0.062316168 0.009047338 -0.07367243 -0.06047704
0.047488872 -0.0108725475 0.06440562 0.05651742 0.017761346 0.0017429286 -0.039126 0.068416044

weight f4 [8]
00000000: c016 863f 7f80 6f3f 5893 593f d62b 753f
00000010: 0d44 773f f050 683f 3c52 693f cc32 7b3f
1.0475693 0.93555444 0.84990454 0.95770013 0.9658821 0.907485 0.91141105 0.98124385

bias f4 [8]
00000000: ede7 f33e 187b e93e 2646 f83e 0fb3 103f
00000010: 9685 053f c544 ac3e 49f4 3e3e da11 103f
0.47637883 0.45601726 0.4849102 0.5652322 0.5215696 0.33646217 0.18647875 0.5627724

running_mean f4 [8]
00000000: 3037 dabe 09a7 a73e 4a30 4abf 12fc 63bf
00000010: de70 45be befc 6b3e 2c5b 41be 24c6 c13e
-0.4262023 0.32744625 -0.78979933 -0.89056504 -0.19281337 0.23045632 -0.18882436 0.37846482

running_var f4 [8]
00000000: f9af 433f 887c 9e3e 17aa 9f3e 2c73 133f
00000010: e74c 5e3e 9d3c 0d3f b21a a43e 12e5 263f
0.7644039 0.30954385 0.31184456 0.57597613 0.21709023 0.55170614 0.32051617 0.65193284

weight f4 [16, 8, 3, 3]
00000000: e934 8d3d ce85 13be b842 3ebd fa16 693d
00000010: 363d 5a3c 9385 22be f4a1 9fbd b93b e4bd
00000020: 7202 58be 6a31 4abc b831 35bd 91c6 6bbd
00000030: 37c5 d03c e520 393d e6c6 0b3d 6231 27bc
00000040: f9fe 0b3c c2fc 0cbc d733 02bd b87f 903d
00000050: a1bd 623d 4bec 853c 3c5e 603d 935a 7fbd
00000060: 9265 c6b8 fc28 80bd a000 8e3d 87df ea3b
00000070: f9d3 cc3c 65d1 ed3d 22ac 8c3d a6e8 6cbd
00000080: c309 64bd ad5f 463d d038 11bd 7ece 8abd
00000090: ff9d 8a3d a00a 243d e8d6 14be b431 813d
000000a0: 1b65 d0bd b3ec ea39 e4a2 413d e7af 0fbd
000000b0: 1772 85bd 9af6 e1bc 051c 94bd bfde babc
000000c0: 0793 61bd 93f1 44bc 2022 853c 91b3 073e
000000d0: 640b a6bd 6c8f a2bd 40f0 f0bb 08c0 87bc
000000e0: 2336 863d dee0 1b3d 286a 89bd 3f4b 78bd
000000f0: b2ad 083d ee29 dbbc cd50 a4bd fc9d e0bd
00000100: bfdf 28be 145f 24be 1f7f 6c3d 0c8d e6bd
00000110: c9bc a63c b049 803c 1e31 1fbe 603a 38be
00000120: 26e4 043d 2948 9b3c 86b2 af3b b2b6 5f3d
00000130: a3b3 03bc 43de a3bd ecfe 99bd 5cbb 7c3d
00000140: 475f 423d 7b20 7bbd c017 b1bd 0444 01bc
00000150: 5d3a 55bd 6325 653d 0771 2bbd 324a 983c
00000160: 7555 d1bb f978 19bd 847a cf3c a492 653d
00000170: 4ca9 90bd c6b6 8abd fc7c afbd 3f95 2abe
00000180: 04a9 fcbc 9ba9 06be 0b3a 21bc f862 fcbc
00000190: c167 23bc 5887 04be 9a12 e7bd f6b8 36be
000001a0: b042 85bd 214b 59bd 3545 bebd e4b9 84bb
000001b0: 153e 223d 6b2e fb3c 3b54 02bd 1230 1dbd
000001c0: 312c cebc ee4d ad3c 7cf0 043d ac8d 1b3c
000001d0: 36ec 5e3d 085c 073e c6b2 d13d 0810 70bd
000001e0: 7111 34bd 39be 113d fb2c a0bd d7e7 993c
000001f0: ca61 50bd 2a22 db3b 533b e63a 292c 913a
00000200: 2a87 f6bb fc74 9ebc 68bd 41be 7ce3 16be
00000210: 3dab 00be 4ae7 fdbd f741 12be 785c 683d
00000220: 1607 73bd 9065 e23d ab10 9dbc 8bc9 0d3d
00000230: 0745 af3c f021 86bc c9bb 82bd 31f2 a93d
00000240: f990 4cbd 5c03 15bb 1306 da3c af8b 1ebd
00000250: cc24 e9bc 9340 b4bc 552a a13b 7171 c1bd
00000260: 471a 4b3c 87fc 11be 76c5 51bc b8b5 023d
00000270: 29a1 88be 1a05 3dbe 1c82 f63a 75b1 1abe
00000280: 9e6a 06bd 97d5 aebc 36f9 b23c 2e23 adbd
00000290: ecff fcbc 2393 e7bd 56b1 fa3d 1a2c 523d
000002a0: 910c 6cbd 167f dcbb 3e73 85bd 224a 29bb
000002b0: 55d1 123e d712 6f3d 2c78 303d af0b c53d
000002c0: 5e79 533d 13ed 533e 6eaf bd3d 4bd2 cf3d
000002d0: 23f5 9c3a 92a4 143c faa9 4b3c f770 82bc
000002e0: ea73 f9bb 929a 003d dbf2 e43b d8d7 29bd
000002f0: 40f7 b73d c124 313d bd06 8739 7d8c 0e3c
00000300: 5101 11bc 721e 1fbc 6148 403d cdd3 a63c
00000310: 2c3d 9c3c c204 c1bd 958e 65bc 6426 913d
00000320: 8497 8bbd 0ef3 7fbd e764 94bd e605 4c3d
00000330: 3350 71bd b33c 7d3d e2bf 583b e8aa b93c
00000340: 0884 8cbc 6eff f23d 4b21 43bc c279 243d
00000350: ef2a 193d 0f2a 26bd 1de4 f13b e8a3 9e3d
00000360: 2698 8dbd 40e1 eaba 70d2 a13c 20b4 253e
00000370: 41e4 853d 06b7 e33c 768b 0ebd 1b2f 89bc
00000380: e60a fbbb 4a54 a83d bd64 5d3d 1b47 c7bc
00000390: 58ad 11bd 4359 aabd edf2 8d3d 13e1 163d
000003a0: c477 3bbc 0df6 51bd f259 173e 6182 5c3d
000003b0: 8aac 0f3e b630 b1bc e28d c03d fff8 1abd
000003c0: 9bc3 88bb 346e 4a3d eb3b 05bb 7ddc d93d
000003d0: 636c 14bb d231 0d3e a519 ee3d eeb7 5a3e
000003e0: 1611 4f3d b8b3 bb3c 23b2 483d 2b2f 843d
000003f0: 3362 dcbc aaf5 77bc 3f96 273d 0311 293c
0.068948574 -0.14406511 -0.046450347 0.056906678 0.013320258 -0.15871267 -0.07794562 -0.11144204
-0.21094683 -0.012340883 -0.04423687 -0.057562415 0.025484664 0.045197386 0.03412523 -0.010204645
0.008544677 -0.008605184 -0.03178772 0.070556104 0.055356625 0.016348025 0.05477737 -0.062342238
-9.460295e-05 -0.06257817 0.06933713 0.00716776 0.02500342 0.116122045 0.06868769 -0.05783906
-0.055673372 0.048431087 -0.03545457 -0.067776665 0.067684166 0.040049195 -0.14535105 0.06308308
-0.10175534 0.00044808313 0.047274485 -0.035079863 -0.065159015 -0.02758341 -0.07231907 -0.022811292
-0.055071857 -0.012020486 0.016251624 0.13252093 -0.08107641 -0.07937512 -0.007352859 -0.01657106
0.065532945 0.038056247 -0.06709701 -0.060618635 0.033368774 -0.026753392 -0.08023224 -0.10967633
-0.16491602 -0.16051894 0.05773842 -0.11257371 0.020353692 0.015660137 -0.1554608 -0.17991018
0.03244414 0.018955307 0.005361858 0.05461759 -0.008038434 -0.080013774 -0.075193256 0.061702117
0.047454145 -0.061310273 -0.08647108 -0.007889751 -0.052057613 0.055943858 -0.04185584 0.018590067
-0.006388361 -0.037468884 0.025326975 0.05604805 -0.07063541 -0.067731425 -0.08568761 -0.16658495
-0.030842312 -0.13150637 -0.009840499 -0.03080891 -0.009973467 -0.12942255 -0.11282845 -0.17843994
-0.0650686 -0.053050164 -0.09290544 -0.00405048 0.039609987 0.030661782 -0.03181861 -0.03837592
-0.025167556 0.021155324 0.032455906 0.009494226 0.054424487 0.13218701 0.102391765 -0.05860904
-0.043961946 0.0355818 -0.07821079 0.018787308 -0.05087451 0.0066874223 0.0017565287 0.0011075783
-0.007523437 -0.019342892 -0.18919909 -0.14735216 -0.12565322 -0.123976305 -0.14282976 0.05672881
-0.05933293 0.11054528 -0.019172987 0.034616034 0.02139522 -0.016373605 -0.063834734 0.082981475
-0.049942944 -0.0022737598 0.026614225 -0.03870743 -0.028459929 -0.022003448 0.0049183764 -0.09445465
0.012396402 -0.14256488 -0.012803426 0.03191158 -0.26685455 -0.18458977 0.0018807086 -0.15106757
-0.03281652 -0.021342082 0.021847349 -0.084539756 -0.030883752 -0.11307361 0.122408554 0.05131159
-0.05762917 -0.006729017 -0.06516121 -0.002583154 0.14337666 0.058367576 0.043083355 0.09621369
0.051629417 0.20695905 0.09261976 0.10147532 0.0011974912 0.00907244 0.012430662 -0.015923006
-0.007612695 0.03139741 0.0069869584 -0.04146561 0.08982706 0.043247942 0.00025754227 0.008700487
-0.0088504115 -0.009711849 0.046944026 0.020364666 0.019072138 -0.094247356 -0.014011045 0.070874006
-0.06816009 -0.062487654 -0.07245808 0.049810313 -0.058914375 0.061825465 0.0033073355 0.022664502
-0.017152801 0.118651256 -0.011909793 0.04015518 0.03739446 -0.040567454 0.0073819296 0.077461064
-0.06913786 -0.0017919913 0.019753665 0.16181993 0.065376766 0.027797233 -0.03480097 -0.016746094
-0.0076612113 0.08219202 0.05405115 -0.024325898 -0.035565704 -0.083178066 0.069311 0.03683574
-0.011442129 -0.051260043 0.14780405 0.053835277 0.14030662 -0.021629672 0.09402062 -0.037835117
-0.0041737086 0.049421504 -0.0020329903 0.10637758 -0.0022647611 0.13788536 0.11625985 0.21359226
0.050553404 0.022912845 0.04899801 0.06454309 -0.026902294 -0.0151342545 0.04091477 0.010318997

weight f4 [16]
00000000: 0c67 7b3f 3b89 5f3f 1332 853f 6b7f 703f
00000010: 2bc3 7e3f 140e 833f e39c 803f a6e8 853f
00000020: bf69 653f 2f61 623f 290e 863f 26c0 683f
00000030: aee4 6b3f 78f7 4a3f b7a1 613f 8c6b 6b3f
0.9820411 0.8731877 1.0405906 0.93944424 0.9951655 1.0238671 1.0047878 1.0461624
0.8961448 0.8842954 1.0473071 0.90918195 0.9214581 0.7928386 0.8813738 0.9196098

bias f4 [16]
00000000: 3b6b 023e 5aa5 073f ade1 6a3e cd7b aa3e
00000010: a2ea c03e e67a d03e cb14 2d3d be68 bf3e
00000020: 4aab 673e 279e f43e c667 b03e 8640 093f
00000030: 7857 b53e 66e2 1f3f 9d12 243e ef1c 803e
0.12736218 0.5298668 0.22937651 0.33297578 0.3767901 0.40718764 0.042256158 0.373846
0.22623935 0.4777691 0.34454173 0.5361408 0.35418296 0.6245483 0.16022725 0.25022075

running_mean f4 [16]
00000000: fcc7 b9bf 7ec7 a3bf 1ef4 463d 7889 6d3f
00000010: 3a11 6ebf a165 1fbf 224e e43e 8442 9dbf
00000020: cc70 953e 4748 21bf 91ba 81bf d67e c3be
00000030: 79c3 9b3e 1bf3 5c3f 2a7e b83f 31f7 37bf
-1.4514155 -1.2795255 0.048572652 0.92787886 -0.92995036 -0.6226445 0.4459086 -1.2285924
0.2918762 -0.6300091 -1.013506 -0.38182706 0.3042257 0.8630845 1.4413502 -0.7186156

running_var f4 [16]
00000000: 5a16 063f be0f a93e 49f4 073f ed8a ab3e
00000010: 30bc 353f 62ff f53e bd54 923e 185a 273f
00000020: 6be3 fb3e bd9c 8d3e 9293 fd3e 494f ee3e
00000030: 20e2 1e3f 754a e03e bdd0 cd3e d52f 813e
0.52377856 0.33019823 0.53107125 0.3350443 0.70990276 0.48046404 0.28580275 0.6537185
0.49196944 0.27658644 0.4952665 0.46544865 0.6206379 0.43806806 0.40198317 0.25231805

weight f4 [16, 16, 3, 3]
00000000: efe1 9bbc a7ac c8bd fd8a 38bd 027b 8f3d
00000010: 8d43 23bd 8c02 85bd afbe 463d 999a 42bd
00000020: 53d6 19bd b088 0bbc c2ce 09bd a028 6fbc
00000030: 0495 adbb 429a 3c3d 62d7 a43d c541 533c
00000040: 22d4 033c e537 d2bc 3589 8e3d 4c39 2dbb
00000050: 073e a4bc 121a e9bc 82ff 7ebc 5aae 063d
00000060: 8dc5 ac3c 18ea 5c3d 4b03 eaba c00d acbd
00000070: 148b fcbc 045e 58bd a7e6 2dbd a562 5dbd
00000080: 7ec6 a4bb c186 14bd ba93 bbbd 49df a4bc
00000090: 5fc6 3abd db82 76bd 9e1e 45bd be74 8cbb
000000a0: 0512 c5bc ccb5 2dbc 387e 5cbd e784 75bd
000000b0: 2d80 193d 7645 2fbd 0b4e 83bd daad 85bd
000000c0: 7460 1cbd 7012 32bd 06ff c6bd 5fae 05bc
000000d0: 767b d03c 8232 f9bc c201 b33c 7643 0e3d
000000e0: 65c8 d93b d551 7fbd 54d7 103d 2cf0 0fbd
000000f0: 06e2 e63b 6be1 afbc 748b c23c 0f25 bbbd
00000100: d382 3abd 0c51 fabc 6085 663b 7115 c4bd
00000110: e077 67bd 666e 1e3d a941 b9bc c13c 63bd
00000120: ee8e a2bb 3e83 c3bc e50b 94bd 782e 91bd
00000130: d931 3c3b 2696 57bc c1ee 25bd e1b2 31bd
00000140: 93f2 f9bc d7eb bdbc 2bf5 e03c 0fd1 413d
00000150: 9e1b 13bd 8229 5dbc 25cf efbc c9bc 863d
00000160: fba4 113a ff9f 323d 8da2 473e b9bf 503c
00000170: 9a22 973d 35d5 dc3d 67d2 f33c c39b 6b3d
00000180: 5d9f d03d b7cd a83d c098 9a3d 7631 213d
00000190: f3f3 803c 353c 80bd 0c8d 353a d2d7 223c
000001a0: 36f7 66bd 8bda 89bb e5c5 7f3d 93e8 4e3d
000001b0: 2676 943d 1c79 833d 8156 813c 3269 443b
000001c0: b0d0 41bc 437f cfbc b02c 18bd c0b7 313d
000001d0: 3ec0 27bc 0aeb c3bb 3782 793d 81ae 963d
000001e0: 0ece fd3c fa62 8cbc bf79 893c 4487 a9bc
000001f0: d57b 0a3d 4d36 d33d a7c9 39bc 3697 0b3d
00000200: 1a53 943d 8f90 07bd e671 44bd 838e c53c
00000210: 7d63 483c 21e5 2ebc 5094 86bd 5d2f d33d
00000220: ba1a e83c 78f7 38bc 7ba6 5f3a 7cfa f83c
00000230: 3aa8 aebc 2456 823d a266 223d a60e ba3a
00000240: 7270 ad3d f6a0 b53d 68d6 b33c 5fb0 bfbc
00000250: ec5e 09bc 021e 10be 2ba5 10be df19 96bd
00000260: 4781 f3bd ee83 303c c8b2 dbbc cf89 30bc
00000270: 841a 333c 4b79 6a3d 8ffd 1c3c 5942 4e3d
00000280: 8f19 91bd 8828 9e3d 4b2f 7bbc 875b 463b
00000290: d69f 81bc bdcb 6abd b3f5 96bb 38d6 7cbc
000002a0: 1ef3 4e3c 871e 27bc 2bb7 e1bd 8739 353d
000002b0: abaf 89ba e75a b33c 7a72 0e3c 2ff7 adbc
000002c0: 2f83 ee3c dd55 f83c 5338 703d 4b80 683d
000002d0: 4afe c13b 1c65 0c3d bb1e 9a3c 4772 f33c
000002e0: 449d c93c 1729 933d f963 08bd b69d dbbd
000002f0: 3681 b33c f986 a8bc 29ec 273d 7b93 0abd
00000300: 5b47 ac3d 7142 673d 1f08 eebc e84a d53d
00000310: 3c71 233c 2816 023d 25a2 16bd ec4f 7ebd
00000320: 2db4 5a3d 45e8 76bd ab23 a2bd e6f3 88bd
00000330: d06b 2738 2454 ff3c 2576 cbbd 86d7 b1bc
00000340: 54ce 743d 12a9 143e 01dd c0bd a766 0ebd
00000350: f80d 0cbd dfb5 aebd cf6c a7bd 0059 16be
00000360: 0f0b 3dbd 825e b6bd 379d d7bc ae1d 493b
00000370: 93be 143d 09b0 9fbd 338b a13d c89c 613d
00000380: 0b78 943d 6828 f33c 5303 b6bc e2e2 9339
00000390: 3cbf 02bd 7248 87bc 5991 71ba fb92 363d
000003a0: 1020 0b3c c1dc 4d3c 4687 d93c 4a85 843d
000003b0: 9711 bdbb b83d bdbc 69ee c9bc dd63 3d3d
000003c0: cdb6 873d 6359 1b3d ec94 9a3c 4b07 31bd
000003d0: 77d5 ee3c 4a09 343d feac e9bc ebed d33b
000003e0: dd6b eabc 7df2 bebd f6a3 ddbd 354f e1bd
000003f0: d33f 273d d4fb 95bd 7023 fabb 756c 283d
-0.019028632 -0.09798556 -0.045054425 0.07005884 -0.039859343 -0.064946264 0.048521694 -0.047510717
-0.03755791 -0.008516476 -0.033644445 -0.014597088 -0.005297305 0.04604555 0.080488935 0.012894099
0.008046182 -0.025661418 0.06959764 -0.0026431857 -0.020049108 -0.028454814 -0.0155638475 0.03288112
0.021090293 0.053934187 -0.0017853765 -0.0840106 -0.030828036 -0.052824035 -0.042456295 -0.054049153
-0.005028545 -0.036261324 -0.09159036 -0.020126002 -0.045599338 -0.060183387 -0.048124902 -0.0042863777
-0.024056444 -0.010602426 -0.05383131 -0.0599412 0.037475754 -0.042790852 -0.0641137 -0.065273
-0.038177922 -0.043474615 -0.097166106 -0.008159249 0.025449496 -0.030419592 0.021851424 0.034732305
0.0066462033 -0.0623339 0.035361603 -0.035141155 0.007045987 -0.021469792 0.023748137 -0.09137928
-0.04553492 -0.030556224 0.0035174713 -0.09574402 -0.056510806 0.038679503 -0.022614317 -0.05547786
-0.004960886 -0.023866292 -0.07228831 -0.07088941 0.0028716235 -0.013158357 -0.040510897 -0.043383483
-0.030511176 -0.023183746 0.027460655 0.047318514 -0.03591501 -0.013498666 -0.029273579 0.06578977
0.0005555895 0.043609615 0.19495602 0.012741023 0.073796466 0.107828535 0.029763414 0.057521593
0.10186646 0.08242362 0.07548666 0.03935381 0.015741324 -0.062614836 0.00069256197 0.009939151
-0.056388102 -0.0042069606 0.062444586 0.05051477 0.072490975 0.06419584 0.015788319 0.0029969928
-0.01182954 -0.025329238 -0.037151992 0.04338813 -0.010238705 -0.0059789466 0.0609152 0.07357503
0.030982044 -0.01713704 0.016781686 -0.020694382 0.0338095 0.103130914 -0.011339582 0.034079753
0.07242413 -0.033096846 -0.047960185 0.024115806 0.012230751 -0.010674746 -0.06571257 0.10311768
0.028333057 -0.01128947 0.00085315824 0.030392878 -0.021320451 0.06364086 0.03964866 0.0014195039
0.08468713 0.088685915 0.021952823 -0.02339953 -0.008384448 -0.14073947 -0.14125507 -0.07329153
-0.11889892 0.010773642 -0.026818648 -0.010775044 0.010931615 0.05724458 0.009581937 0.050356243
-0.07084953 0.077225745 -0.0153311 0.0030266957 -0.015823286 -0.057323206 -0.0046069263 -0.015431933
0.012631206 -0.010200149 -0.11021265 0.044244315 -0.0010504624 0.021893932 0.0086942855 -0.02123603
0.029115288 0.03031438 0.058647465 0.056762975 0.005920206 0.034276113 0.018813482 0.029717578
0.024611123 0.07185572 -0.033298466 -0.1072344 0.021912199 -0.020572172 0.040996704 -0.033832055
0.084120475 0.056459848 -0.029056607 0.10414678 0.009975728 0.03175941 -0.036775727 -0.06208794
0.053394485 -0.060280103 -0.079169594 -0.06687145 3.991631e-05 0.031168051 -0.09934644 -0.021709215
0.059767082 0.1451762 -0.09417153 -0.034765866 -0.03419301 -0.08530783 -0.081750505 -0.14682388
-0.046153124 -0.08904745 -0.026320083 0.0030687856 0.03631456 -0.07797248 0.07887878 0.05508116
0.07249459 0.029682353 -0.022218382 0.00028207066 -0.031920657 -0.016514037 -0.0009215079 0.044573765
0.008491531 0.012564839 0.026553761 0.06470735 -0.005769919 -0.023100719 -0.024649816 0.046237815
0.06626663 0.037927043 0.01886984 -0.043219846 0.029154522 0.04395417 -0.028524872 0.006467571
-0.028615886 -0.09323595 -0.10822289 -0.11001436 0.040832352 -0.07323423 -0.007633619 0.041119058

weight f4 [16]
00000000: 4cb3 613f 185c 673f 697d 533f 3aa4 753f
00000010: 002f 673f 927b 6e3f 523e 5e3f 60c8 693f
00000020: 8627 8a3f 10b2 4c3f a5dd 7d3f e77b 6d3f
00000030: 0837 6a3f 7261 843f 3ae1 763f 0883 633f
0.8816421 0.903749 0.82613236 0.95953715 0.9030609 0.93157303 0.86813843 0.91321373
1.0793312 0.799592 0.9916633 0.92767185 0.9149022 1.0342238 0.9643742 0.8887181

bias f4 [16]
00000000: e9b7 053f cbda d63e 8b93 a43e 23b7 b83e
00000010: 2fd6 b03e 747f 913e 17fb 8e3e b6b4 b13e
00000020: 778b df3e c5b1 f83e b8a1 c13e cd1b c83e
00000030: 81e6 aa3e 902c 823e fe07 af3e aabb 963e
0.5223375 0.419638 0.32143816 0.36077222 0.3453841 0.28417552 0.2792594 0.34708184
0.4366109 0.48573127 0.37818694 0.3908371 0.33378986 0.25424623 0.34185785 0.2944005

running_mean f4 [16]
00000000: a9cc cdbd b424 43be 305a 9fbf 1eff 04bf
00000010: b69a 4fbf cdd8 153f a8a5 33bf a89b 133d
00000020: a970 85be 65de 66be af83 0ebf f306 97bf
00000030: dfed 40bf e5e5 583f cd11 4dbe 3f28 7fbe
-0.100488015 -0.1905697 -1.2449398 -0.5195178 -0.81095445 0.58533937 -0.70174646 0.036037117
-0.26062515 -0.22545774 -0.55669683 -1.1798996 -0.7536296 0.8472579 -0.20026322 -0.24917696

running_var f4 [16]
00000000: b199 7d3e bb60 993e dc89 1d3e ac74 8f3e
00000010: 3538 593e be5c af3e 7a01 653e 7300 873e
00000020: 5c11 543f a961 933e ffe9 bc3e 5fab 953e
00000030: b0d5 743e 794e f83e 555c e23e e0c8 ae3e
0.2476566 0.29956612 0.1538462 0.280187 0.21212848 0.34250444 0.22363845 0.2636753
0.8283899 0.28785446 0.36897275 0.29232308 0.2390964 0.4849737 0.4421107 0.3413763

weight f4 [16, 8, 1, 1]
00000000: 6d44 d0bd 0d32 733d a5c5 b0bd 4727 683d
00000010: e433 333e c083 12bc c3be 273e a539 cbbd
00000020: cf9a 393e 187d 2a3e 936c ed3d 5707 913e
00000030: 812e 173e b22e b63d 4ee4 b93d f02c 5b3d
00000040: b103 c53d 2494 af3e bb55 013e 9c5b aa3e
00000050: 2482 953e afef b7bc 25d3 d03d 91bd 8e3d
00000060: 938a 153e 0448 74bd fa94 bcbc 9ab5 1b3e
00000070: 4bd3 763e ef73 cabd 87ee 093b 51fd 463e
00000080: 0c52 1e3d 02a1 07bd a2c7 053e 35e2 af3e
00000090: a431 753e b643 223e 2338 0ebc a2d3 8a3e
000000a0: 9862 023e 7c97 6ebd f083 923d 3de2 bb3e
000000b0: b1a7 f5bc baa8 603e e3bf 523e c9a8 473d
000000c0: d2aa 8b3e 4a68 023e 5d35 843e 3543 413e
000000d0: bbe3 a93d ca6f 1d3e a800 8ebc 3ec5 503e
000000e0: 8d2e 6e3e 39ba 8f3e 3bf9 883b d57f 2c3b
000000f0: 5222 123e b0ad 19be c42c 8f3e 3713 1a3e
00000100: e35b 8a3e 53a2 eb3d 73c8 16bc 6deb c63d
00000110: 3034 723b 1ee5 2a3d 8dc9 853c 78f8 bc3d
00000120: 97ab 173e ffe2 8b3e 4f70 853d 0ad6 4b3e
00000130: 6d9d 5eb9 b6a4 113d 6fc3 b63d de7d 613d
00000140: cd51 183e 00d2 b43c 1338 3c3e 17d4 363e
00000150: 9fbd c33d 87c9 643e cd5e 0a3e cb9c 293e
00000160: 9a68 e13d 81ed 083d 9791 443e 0c51 423d
00000170: 40a2 383e 091e 733c 4b64 ab3d 2a50 f43d
00000180: 74bf 793d 8cc3 683e 5a2f 843e 6761 703e
00000190: 6656 923a 4657 f93d f321 4fbd b6c7 df3c
000001a0: 9963 a73d 5381 96bd 2f16 803c 578b ab3e
000001b0: 0974 bdbd 665f 7bbe c5df 593d 8159 03bd
000001c0: 56cc 103e baaa ef3d 96bb 9abc 6fb9 0a3e
000001d0: 8f4b 3f3e 3422 223e 0ce5 6cbd 70bd b53c
000001e0: 07f4 803e 24f6 a23d 809e b73e ecc7 733e
000001f0: 1f3b cdbc 9be6 913e ce27 043c bd2c aa3d
-0.10169301 0.059373904 -0.08631448 0.056678083 0.17500263 -0.008942544 0.16381364 -0.09923104
0.18125461 0.16649282 0.115929745 0.28325912 0.14763834 0.08895625 0.09076749 0.053509653
0.09619845 0.3429271 0.1263036 0.33273017 0.29200852 -0.022453157 0.101965226 0.06969751
0.14603643 -0.059638992 -0.023020256 0.15205994 0.2410404 -0.09885394 0.0021046714 0.1943257
0.038652465 -0.033112533 0.13064435 0.3435227 0.23944718 0.15846142 -0.008680376 0.27114588
0.12732923 -0.058249936 0.07154071 0.36696044 -0.029987188 0.21939364 0.20581011 0.04874495
0.27278763 0.12735096 0.25821963 0.18873294 0.08295389 0.15374675 -0.017334297 0.20387742
0.23259945 0.28071764 0.004180101 0.002632131 0.14270905 -0.15007663 0.2796384 0.15046392
0.2702323 0.1150557 -0.009203064 0.09712873 0.0036957376 0.04172241 0.016331458 0.09227079
0.1481155 0.27321622 0.06515562 0.19905868 -0.00021230215 0.03555747 0.08923995 0.055051677
0.14874955 0.022072792 0.18380766 0.17854343 0.09557652 0.22342502 0.13512726 0.16563718
0.11006279 0.033429626 0.19196163 0.047440574 0.18030643 0.014838704 0.08368739 0.119293526
0.0609736 0.22730845 0.25817376 0.23474656 0.0011164665 0.12174849 -0.050569486 0.02731691
0.081732936 -0.073488854 0.015635578 0.33504745 -0.092506476 -0.2454811 0.05319192 -0.03206778
0.14140448 0.117024854 -0.018888276 0.135473 0.18681167 0.1583336 -0.057835624 0.022185057
0.25186178 0.07957104 0.35863113 0.23806733 -0.025052605 0.2849625 0.008066131 0.083093144

bias f4 [16]
00000000: 57a3 3d3f 1f49 053e 03ab b33e bc0d 1c3f
00000010: feb7 bd3e bb35 e83e 4eee 7c3e 4a59 283f
00000020: 0687 2c3f 44ed 303e 0c33 883e 2d9e 323f
00000030: 7f43 8b3e 3c4e 81bd 5986 303f 8d3e 963e
0.7407736 0.13016175 0.3509141 0.60958457 0.37054437 0.45353493 0.24700281 0.65761244
0.6739353 0.1727801 0.26601446 0.6977261 0.27199933 -0.0631375 0.68955 0.29344597

weight f4 [48, 16, 3, 3]
00000000: 2d00 4ebd 5f7e 9f3d 3789 8c3d de78 ccbb
00000010: 2627 14bd aeb2 91bc 84ae 6f3d ecdb a93c
00000020: b67a 20bd 0c31 733d a843 033d e392 14bc
00000030: 7dbf 06bc 0a73 45bd fa8b 93bd b972 24bd
00000040: 38fc 7abd 89e7 b1bd 2cce 1abd e5c0 fb3c
00000050: 8303 e7bc e2c5 013c e1c7 adbd 392b 26bd
00000060: 3bc0 0e3d f944 e03c 6361 b33c e3d4 e53d
00000070: 73e0 c33d 187d 073e 64aa 17bc 5fca 9c3d
00000080: e216 323c 2415 6dbd a9b9 afbd 8a82 c5bc
00000090: 03a6 9abc 85fa a53d a183 5b39 696a 003c
000000a0: 57c9 a1bb 9f01 463c e79d c2bc 81c2 663c
000000b0: b25a f33c 5d2d 3abc 2074 06bd 765e 0d3c
000000c0: 48f5 91bc 21ac 683d bec1 3abc 7a92 69bc
000000d0: 1fd3 b9bc a61c 1c3c 52ae 943d c232 2bbc
000000e0: 3783 ca3d b99d 98bd 6cc3 373c f031 33bd
000000f0: b8f4 fb3b 7134 343c ee06 45bd b08f 20bd
00000100: 0535 c7bd e609 23bd a896 f0bc 2b47 93bc
00000110: 03ce 22bd 7d1d c8bc b861 953d 1977 523d
00000120: c146 b33d e6a3 bcbc f142 ea3c 4fa6 aa3b
00000130: 4dd8 8b3d 862b 84bc 4e27 90bd ff69 85bd
00000140: c416 113c 62c2 c6bc e223 54bc af1b 6fbd
00000150: 22d0 5bbd 1ba3 a5bd 3321 103d d12c 46bc
00000160: da33 873c 82c4 7dbc 487f 46bc e37d 17bd
00000170: ca75 94bc 58dc cc3c 29a7 90bd 155d 393b
00000180: 802b 0e3d e852 e43d 7906 2ebc a0e0 a93c
00000190: 452d 8d3d c4b6 2d3d b3c2 4cbd 8de3 11bd
000001a0: eae4 323d fbbb 39bd 076a 9fbd 7b64 20bd
000001b0: 6c92 433c 0aa7 613d 6799 a5bc cc1b 4a3d
000001c0: 96de 75bd fd35 f538 6113 bd3c fa39 1bbd
000001d0: d3e1 acbc 1043 d03d 1915 983c b4ef 213d
000001e0: 40a2 a83c a38d a03c fedf 85bd 7937 11bd
000001f0: 6a6c e83b f65d d6bd 5b4b e1bd c355 1abe
00000200: 2d39 8abc 9d59 56bd 0975 a5bb 9034 f73b
00000210: 35e7 303d ed3e d43d 76f7 87bc 769c 41bb
00000220: e72b f03b b839 d7bc da93 dbbd f940 3c3d
00000230: 4975 a4bc e32e bdbc 1871 d5bd fef4 b4bc
00000240: 2add f0ba 414e 18bd 2d85 1f3c c8df 00bd
00000250: 2340 6ebd 0b27 d73c 68e1 87bd bc3d a3bd
00000260: 893f 18bc 0766 183c f4a6 54bd 0de0 b33c
00000270: 222d 94bd ecec a0bd f43b a73d 7ec1 87bc
00000280: cc61 be3c dba9 d93d 210d ea3c b21c 18ba
00000290: aadd 643d 64ae 51bd a518 b1bc 14b3 313e
000002a0: 83ac be3c ecf5 89bd 9c89 a03d 1c22 b33c
000002b0: c6ff 14bc 5af9 533d ced4 bbbc 963d dfba
000002c0: 3f91 c139 4b0f 35bc 9057 853b 0868 553b
000002d0: cb71 e83c 7f41 5bbd 3453 8b3c 9660 293d
000002e0: 0bd7 5abd 7cc3 463d 4d16 afbc 36aa bdbd
000002f0: 0cf3 7f3d fa13 50b9 185d 9dbd 23b8 113d
00000300: c7a5 04bd b63c 193c f35b d8bb 7b99 5fbd
00000310: 093e 8fbd cdbd eb3c 2c86 5bbc 30e9 67bd
00000320: 6458 043d e463 a6bd cdf0 ba3c 535f 0f3e
00000330: 67dd 443c 9ee8 703c fedc bd3d 6c3f 04bd
00000340: af6f 5dbd 93dd 8cbc 099a 90bc 7f19 363b
00000350: 6e35 6bbc eb5a 17bd 54e3 56bd a85f 123d
00000360: 4489 933a 3eb7 83bc 0c30 5dbc f824 253c
00000370: 97f9 1f3a e91d fe3c a581 423d ed0a 76bd
00000380: 99a8 f0bc 73b1 8abb efea 32bc 5201 b43c
00000390: 596f 05bd 497b 32bb 6f2f a93d bf91 a8bd
000003a0: 2e05 333c 9c79 bc3d da32 ec3a fc08 78bc
000003b0: d24a 3b3d 1d39 04bd 2017 4abd e739 fb3c
000003c0: 91b9 2dbd 09ca 4fbd 1b1a 693d 28db 40bc
000003d0: 05ac c83b 0f5f 933d 193a 3c3c 3d06 04bc
000003e0: c432 d43d 7d22 4fbc baf1 bebd a444 033d
000003f0: 6f71 a73c e1f6 863b a8eb 493b 2687 6bbd
-0.050293136 0.07787775 0.06862109 -0.0062399944 -0.036170147 -0.017785396 0.05851604 0.02073475
-0.039179526 0.059372947 0.032046944 -0.009068224 -0.008224365 -0.048205413 -0.07204433 -0.04014847
-0.06127569 -0.0868674 -0.037794277 0.030731628 -0.028199917 0.007920714 -0.084853895 -0.040568564
0.034851294 0.027376639 0.021897024 0.112222455 0.09564295 0.13231313 -0.009256933 0.07655787
0.0108697135 -0.05788149 -0.08580334 -0.024110097 -0.018877989 0.081044234 0.00020934503 0.00783787
-0.0049373317 0.012085347 -0.023756934 0.014084459 0.029706333 -0.0113633545 -0.03282559 0.008628478
-0.017817155 0.05680478 -0.011398731 -0.014256114 -0.022683678 0.009528315 0.072598115 -0.010449113
0.098883085 -0.07451958 0.011216026 -0.043748796 0.007689085 0.010998831 -0.04810231 -0.03919953
-0.097269095 -0.03980436 -0.029368713 -0.017978271 -0.03974725 -0.024428124 0.07294029 0.05138311
0.087537296 -0.023027372 0.028596373 0.005207814 0.068283655 -0.016134035 -0.07038747 -0.06514358
0.008855525 -0.02426261 -0.012948008 -0.05837601 -0.053665288 -0.080877505 0.03518791 -0.012095646
0.016504217 -0.015488746 -0.012115307 -0.03698529 -0.018122572 0.025007412 -0.07063133 0.002828424
0.034709454 0.111486256 -0.01062166 0.020736992 0.068934 0.042410627 -0.049990367 -0.0356174
0.04367534 -0.045345288 -0.07783895 -0.039158326 0.011936765 0.05509094 -0.02021475 0.049342915
-0.060026728 0.000116925665 0.02308053 -0.037897088 -0.021103775 0.10169041 0.018564748 0.03953524
0.02058518 0.019598788 -0.06536864 -0.035453293 0.007093002 -0.104671404 -0.11000701 -0.15071778
-0.016872967 -0.052331556 -0.005049352 0.0075441077 0.043189246 0.10363565 -0.01659749 -0.002954272
0.0073294523 -0.02627264 -0.1072156 0.0459604 -0.020075457 -0.023093646 -0.104219615 -0.022089478
-0.0018376459 -0.037184004 0.009736341 -0.031463414 -0.058166634 0.026263734 -0.0663479 -0.07970759
-0.009292492 0.009301669 -0.05191703 0.021957422 -0.07235171 -0.07857689 0.08165732 -0.016571756
0.023239993 0.106281005 0.028570713 -0.0005802616 0.055875458 -0.051191702 -0.021618197 0.17353469
0.02327562 -0.06736359 0.07838747 0.02186685 -0.009094184 0.051751472 -0.022928622 -0.0017031904
0.00036920045 -0.011051009 0.004069276 0.0032563228 0.028374573 -0.05352926 0.017007448 0.041351877
-0.053427737 0.048526272 -0.021372939 -0.09260981 0.062487647 -0.00019843868 -0.07683772 0.035575997
-0.03238466 0.0093528535 -0.006602758 -0.05458973 -0.06994254 0.028777028 -0.013398688 -0.05661887
0.03231086 -0.081245214 0.0228199 0.14001207 0.012015677 0.014703898 0.092706665 -0.032287046
-0.054061588 -0.017195499 -0.017651575 0.0027786193 -0.014356 -0.03695194 -0.05246289 0.035735756
0.0011256118 -0.016078588 -0.013500225 0.010079615 0.00061025604 0.031020122 0.04748692 -0.060069013
-0.029377269 -0.0042325794 -0.01092027 0.021973286 -0.032576893 -0.0027234128 0.08261 -0.08230924
0.010926528 0.09202883 0.0018020526 -0.015138861 0.04572565 -0.03228103 -0.04933846 0.030667258
-0.042413298 -0.050729785 0.05690966 -0.011771001 0.006124022 0.07195865 0.011488461 -0.008058128
0.10361245 -0.0126425 -0.093234494 0.032047883 0.020439832 0.0041187857 0.0030810628 -0.057501934

weight f4 [48]
00000000: f580 813f 267e 7c3f 7f39 723f 2d20 7b3f
00000010: 08a2 7f3f 756d 813f fa0e 6c3f 205f 6e3f
00000020: a93f 873f 2c62 7a3f f470 8b3f d617 803f
00000030: d1b4 7a3f 499f 7a3f 6954 773f 1398 713f
00000040: 0f7e 7c3f adbd 773f 104f 713f 209c 683f
00000050: 8bd5 7d3f 0c6c 723f a328 7e3f b04b 793f
00000060: 571f 783f 325c 823f c2a7 7d3f c198 773f
00000070: 3554 843f 7bff 693f b916 803f 74a1 7c3f
00000080: f39a 803f 246b 7f3f 47a2 7a3f 6f77 723f
00000090: 8f2c 733f 413c 813f fb1d 853f 3ea1 703f
000000a0: 11ae 6e3f 8110 763f 8acf 793f 4775 6e3f
000000b0: 4ff5 713f af59 803f 2526 6a3f ce6e 6b3f
1.011748 0.9862999 0.9461898 0.9809597 0.99856615 1.0111529 0.9221035 0.931139
1.0566303 0.9780605 1.0893846 1.0007274 0.97932154 0.978993 0.96613175 0.9437267
0.9862985 0.967738 0.94261265 0.9086323 0.99153966 0.94696116 0.99280757 0.97381115
0.9692282 1.0184386 0.99084103 0.9671746 1.0338198 0.9140546 1.0006934 0.9868386
1.0047287 0.9977286 0.97903866 0.9471349 0.94989866 1.0096513 1.0399774 0.93996036
0.93234354 0.9611893 0.97582304 0.931477 0.94514936 1.0027369 0.91464454 0.9196595

bias f4 [48]
00000000: 2001 903e fc80 ad3e 68e5 543d 84f3 953e
00000010: 43ce 4c3e a3b2 823e 85df b83e c20b 7c3d
00000020: b980 8f3e e6a0 813e 339a 733e 5641 703e
00000030: 264e a13e 934c b93d 7daa 823e 722b 393e
00000040: 95fd 813e 834e 783e cc5d 713e a780 9c3d
00000050: 96cb 863e 8201 6a3e 73f9 223e 4ffd a83d
00000060: 16e6 a73e 7659 273d 050b 0a3e 8bbd 823e
00000070: c942 b83d 4252 be3e bb89 0b3e 5fa6 ad3e
00000080: 6b35 af3e 2104 c53d 4d02 813d 16f3 9c3e
00000090: 69d4 b23e bb9f 513e af7f f53d f65d 203e
000000a0: 4480 663e 060e c03e 40bc 443e 7fc8 9e3e
000000b0: 97e6 973e 621d 623e 8ed0 e53e e3d5 df3e
0.28125858 0.3388747 0.05197659 0.2928735 0.20000558 0.25526914 0.36108032 0.06153465
0.28027895 0.25318068 0.23789291 0.23462424 0.31504935 0.090478085 0.25520697 0.1808298
0.2538878 0.242487 0.23570937 0.07641726 0.263272 0.22852138 0.1591547 0.0825144
0.3279273 0.0408568 0.13480766 0.25535235 0.08997113 0.37172133 0.13626759 0.33915994
0.34220442 0.09619928 0.06299267 0.3065421 0.3492768 0.20471089 0.11987244 0.15660843
0.22509867 0.375107 0.19212437 0.3101234 0.29668114 0.22081521 0.44885677 0.4371787

running_mean f4 [48]
00000000: f38e d7bf be6e fcbd df7a f0be f795 0b40
00000010: 2895 e03e ef7f 883f 460f 91bf 42d4 e23f
00000020: e1b7 f4bf 456f d2bf 87e6 31c0 dc88 1abe
00000030: cc0d cc3d 745a 3740 e242 9dbc d5d2 113f
00000040: 95ed 5cbf 2c7e 1cc0 5191 3d3d c441 9c3f
00000050: 901d 073f 4d4f 503f 7363 2dc0 8fe5 46c0
00000060: 4822 1d3f 43ca e33d 633c 91be 8dde ff3e
00000070: 9a04 93c0 775b 0940 6f11 4c40 0b30 ff3e
00000080: 1e2e 0440 8a77 6440 c0e8 85c0 06c7 2abf
00000090: eacf a93f d769 1cbf a91f bfbf 1b75 083e
000000a0: b0e3 373d 29e5 c1be 8077 30c0 efb1 613f
000000b0: eb2e 47bf f736 443f fa31 ccbe 1241 693f
-1.68405 -0.1232581 -0.46968743 2.1810281 0.43863797 1.0664042 -1.1332786 1.7721026
-1.9118615 -1.6440207 -2.7796953 -0.1509127 0.09963569 2.8648958 -0.019196931 0.5696233
-0.8630002 -2.445201 0.046281163 1.220757 0.52779484 0.81371003 -2.709195 -3.1077611
0.61380434 0.11122563 -0.28366384 0.4997448 -4.5943117 2.1462076 3.188564 0.4984134
2.0653148 3.569796 -4.184662 -0.66709936 1.3266575 -0.61099 -1.4931537 0.13325922
0.044894874 -0.37870148 -2.7572937 0.8816213 -0.77805966 0.7664637 -0.3988188 0.91114914

running_var f4 [48]
00000000: c059 563f b89b 8c3f 2ba2 743f bf77 aa3f
00000010: 1e03 8e3f d627 323f c99b 1e3f 4de1 983f
00000020: 1332 7a3f adfb 803f f1de a33f 3e65 6f3f
00000030: 35ff 803f d6b7 e23f d1cb 113f 4fde 0a3f
00000040: 8975 563f 1b7c 923f 7de6 213f 764f 583f
00000050: 1d42 5c3f 0fc8 653f 99e3 743f c7e7 803f
00000060: f5ca 533f c192 bb3f 06e0 7b3f cc6c 493f
00000070: 3964 1140 7077 d23e 365e ef3f 279e 713f
00000080: db8d 863f fc14 a13f f08b d33f 4fd0 f73e
00000090: d431 3b3f a90f 7a3f 7996 a83f d7e8 8a3f
000000a0: fce0 103f a507 333f 3a3c 6d3f f04c 743f
000000b0: dcb3 183f 9a13 7d3f cba8 293f 8b49 323f
0.837307 1.0985022 0.9555995 1.3317794 1.1094701 0.69592035 0.6195646 1.1943756
0.9773266 1.0076805 1.2802411 0.9351386 1.0077883 1.7712352 0.56951624 0.54245466
0.83773094 1.1444124 0.6324232 0.8449625 0.8603838 0.8975839 0.95659786 1.0070733
0.8273156 1.4654161 0.9838871 0.78681636 2.271742 0.4110675 1.8700626 0.94381946
1.0512041 1.2584529 1.652708 0.48401114 0.73122907 0.97680146 1.3170921 1.0852307
0.565933 0.6993354 0.92670023 0.954299 0.59649444 0.98858035 0.6627318 0.6964347

weight f4 [48, 48, 3, 3]
00000000: bc2b d93b b94c 0f3d b8f0 a53c 4c27 2fbd
00000010: de44 28bd bf4e d1bc 994e a7bc 06d6 04bc
00000020: 6adb c1bb 9218 10bd 1497 f1bc d203 6dbd
00000030: fec6 ad3c 510b 1c3d a099 afbc 408a 013d
00000040: 2a7c bd3c 3a75 873a c3b4 9f3c 1cec 353c
00000050: 3d0c 0b3b 8f1a 013c f655 1abb 62de 943c
00000060: c14c 153b fd86 18bd b461 6bbd 5282 7fbc
00000070: 4031 4f3c dd51 dabc d5f1 983c 1a68 c9bb
00000080: 0706 a23b 599a 283d ef14 a13d ef49 a6bc
00000090: 358c a33c 57b7 603d 3983 e83c a686 433b
000000a0: 91df dbbc 849d c7bc b56e cfba ef3c 65bd
000000b0: 6d81 25bd 0b93 89bc 6588 1e3d 094d 9b3c
000000c0: 4b94 6c3d f37f 2e3d 1c61 71bc 7e56 043d
000000d0: f001 6dbc 7d80 1abd c4db 7bbc 9458 6b3b
000000e0: bc24 51bc 6a1a ad3c 71ec 3abc 2f28 12bd
000000f0: b1b0 b63c 5e8e 66bc 4282 073c 0070 4dbd
00000100: 2526 8abd 321b 62bd f121 9bba 979c c8ba
00000110: 95ca 00bd edf6 55bc 8fdd 8f3c cc21 663d
00000120: 6a1a 963d 5887 393c 77ca b5bc e3bb d8ba
00000130: 0d05 933c b3db 3eba 87ce f2bc c92a 6cbd
00000140: 8d3c 81bc 5d5f 3dbc 6ea7 113d e688 c23c
00000150: 79f1 1ebd cce4 e33b 6883 13bd eace 88bb
00000160: 33da 9abd e02f 0a3a 84ba 2d3d ff2c eb3c
00000170: 5867 c63d b202 0cbd da56 22bc f647 6dbd
00000180: e8d6 07bd a1c7 17bd 8ce0 cdbd 3159 f6bc
00000190: 6111 bdbb 179b 2abd 0783 c5bc c6c4 13bd
000001a0: 2919 27bd 43b2 21bd 0e60 603b 66cb 1dbd
000001b0: b090 b1bb 1f3d d93c 3829 19bc 970e 173d
000001c0: 039a 42bb 77e6 2d3d 8925 eebc e3fd 9ebc
000001d0: 7359 d7bc 41a4 223c 05ee 86bb d7d7 46bd
000001e0: 8ad2 08bd a596 663c 542f 2a3d c468 06bc
000001f0: 0d5b 073c 0391 913c afb9 65bd 6b43 8abd
00000200: 5eaf 89bd c8e4 0dbd 8db4 bf3a 3793 eabb
00000210: 5476 4f3b 3609 b83b 8c36 9e3c b780 273c
00000220: 77a4 0e3d 01c9 963d f8e4 33bc 921b 323d
00000230: c47f fd3c 5d0f 73bc 3744 2bbc 698f f9ba
00000240: 4dfd f1bc 6421 233d 188f 8b39 148c c8bc
00000250: 028c 8e39 9438 95bc 9765 993c bc70 18bd
00000260: 5491 dfbb 4b0f 94bd 2785 f2bc d602 7abd
00000270: eed7 92ba 6cda 083d 9e7f f53c 8888 c6bb
00000280: 503b b33b c5d3 19bb a294 dabc 358e 183d
00000290: 6655 853c ab32 ae3b 6f00 793d 7fdc 47bc
000002a0: c389 9dbb a3ec 0abc ec9c 53bc f7a8 a43b
000002b0: 220d 433d bc0c a83d 5e69 9cbc f9f8 973c
000002c0: f72d 923a 3315 fa3c 602e b63c 4821 303c
000002d0: 85b5 343c 19c0 3b3d 4ac2 2d3d 6b19 873b
000002e0: e382 3f3d 739c 21bc 9a5b 41bc 5a10 42bc
000002f0: 534d 65bd b5bf 10bd efcd 2ebc 7caf a0bd
00000300: 36e6 b0bc cb49 82bd 77d9 a03c c649 fabb
00000310: 89db dfbc 6a27 c73c 194f 36bd 3797 1ebd
00000320: bb09 42bd 10f0 d73c af0a 59bd 6b28 223c
00000330: 8b06 ad3c e129 c73b 1800 473d 3eec 12bd
00000340: 4c04 65bc f4fb 2ebd 60be 03bd 9b7d 173d
00000350: eb4d 853c 053c b73c 1823 953b 6ce7 f0bc
00000360: c5c1 c53a a319 ae3b 547b adbd f21e 51bd
00000370: 5b1c 6bbd bbe6 24bd 855a 413c 7cd8 0e3d
00000380: fefa 443d a9f9 123d 3f9c e2bc c601 80bd
00000390: 74c6 fe3b c294 88bb 5f3c 7fbc c9fe 0d3d
000003a0: 229f fd3c 8b10 a6bc 58b6 d2bc 3d59 3abd
000003b0: fbb8 e5bc 67f2 f23c c4e9 aebb 78a1 833c
000003c0: 0bd3 47bc b4e2 0d3d 5421 5f3c 0e97 b3bc
000003d0: dbe7 a8bd 995a 94bd 664a 693c 618c b13b
000003e0: aba8 083d a731 ac3b 858a feba 105c b13d
000003f0: 53ad 933c 92c9 0bbd af91 64bd a8b4 2b3d
0.006627528 0.034985278 0.020256385 -0.042762086 -0.041081302 -0.025550244 -0.02042322 -0.008107668
-0.005916049 -0.035179682 -0.029490985 -0.05786497 0.021213051 0.03809673 -0.021435559 0.031625986
0.023130495 0.0010334619 0.019495374 0.011103656 0.0021217011 0.007879867 -0.0023549772 0.018172447
0.0022781345 -0.03723811 -0.057466224 -0.015595036 0.012646019 -0.026650364 0.018670002 -0.006146443
0.004944566 0.041162822 0.07865321 -0.020298926 0.019964317 0.054862347 0.028382884 0.0029834895
-0.026840003 -0.024367101 -0.001582584 -0.055966314 -0.040406633 -0.016793748 0.038704295 0.018957632
0.05775861 0.04260249 -0.014732625 0.032309048 -0.014465794 -0.037720192 -0.01537222 0.003591095
-0.012765106 0.02113076 -0.011408911 -0.035682853 0.02230105 -0.014072029 0.008270802 -0.05015564
-0.06745557 -0.055201717 -0.0011835677 -0.0015305456 -0.031443197 -0.01305936 0.017561702 0.056184575
0.07329257 0.011323772 -0.02219127 -0.0016535487 0.017946744 -0.00072806625 -0.029639496 -0.05765799
-0.015775943 -0.011558381 0.035560064 0.023746919 -0.038804505 0.006954765 -0.03601399 -0.0041750567
-0.075611494 0.0005271416 0.042414203 0.02870798 0.0968768 -0.034182258 -0.009908402 -0.057929955
-0.033163935 -0.037055615 -0.100525945 -0.030071827 -0.005769894 -0.04165181 -0.02411033 -0.03607633
-0.04079548 -0.039476644 0.003423694 -0.038524054 -0.0054188594 0.026518403 -0.009348206 0.03687915
-0.002969385 0.042456117 -0.029070633 -0.019408172 -0.02628777 0.0099268565 -0.0041177296 -0.048545685
-0.03340391 0.014074002 0.041549042 -0.008203689 0.008261454 0.017769342 -0.056085285 -0.0675114
-0.06722902 -0.03464201 0.0014625952 -0.0071586627 0.0031656222 0.0056163324 0.01931312 0.010223559
0.034824815 0.07362557 -0.010979883 0.043483324 0.030944712 -0.014835206 -0.010453275 -0.0019039932
-0.029539729 0.039826766 0.0002661876 -0.024480857 0.00027188665 -0.018215455 0.0187252 -0.037216887
-0.0068227444 -0.072294794 -0.029604508 -0.06103786 -0.0011203268 0.03341143 0.02996808 -0.0060587563
0.005469717 -0.0023472172 -0.026682202 0.037244994 0.016276073 0.0053160987 0.06079143 -0.012198566
-0.0048076822 -0.00847927 -0.012915831 0.005025025 0.047619946 0.08205554 -0.019093212 0.018551337
0.0011152615 0.030527687 0.02223891 0.010750122 0.011029606 0.045837495 0.042421617 0.004122903
0.046755683 -0.009863961 -0.011801625 -0.011844719 -0.055981945 -0.035339076 -0.010669216 -0.07845971
-0.021594148 -0.06361731 0.019634945 -0.007638189 -0.027326362 0.024310786 -0.044509027 -0.03871843
-0.04737256 0.026359588 -0.052988704 0.009897332 0.021121284 0.0060779904 0.048584074 -0.03586983
-0.013978075 -0.04272075 -0.032163978 0.03698502 0.016272506 0.022367487 0.0045513026 -0.029407226
0.0015087655 0.0053131147 -0.084707886 -0.051054902 -0.05740009 -0.040259104 0.011801367 0.034874424
0.048090927 0.035882626 -0.027662395 -0.06250338 0.0077751223 -0.004168124 -0.015578358 0.03466681
0.03095967 -0.02027156 -0.025721714 -0.04549526 -0.028042307 0.029656602 -0.0053379256 0.016068205
-0.012196313 0.03464003 0.013618786 -0.021922614 -0.08247348 -0.07243843 0.014238929 0.005418346
0.03336398 0.0052549425 -0.0019419944 0.08660138 0.018026983 -0.03412778 -0.055802997 0.041920334
